<?xml version="1.0"?>
<net name="main_graph" version="11">
	<layers>
		<layer id="1" name="images" type="Parameter" version="opset1">
			<data shape="1,3,640,640" element_type="f32" />
			<output>
				<port id="0" precision="FP32" names="images">
					<dim>1</dim>
					<dim>3</dim>
					<dim>640</dim>
					<dim>640</dim>
				</port>
			</output>
		</layer>
		<layer id="0" name="orig_target_sizes" type="Parameter" version="opset1">
			<data shape="?,2" element_type="i64" />
			<rt_info>
				<attribute name="old_api_map_element_type" version="0" value="i32" />
			</rt_info>
			<output>
				<port id="0" precision="I64" names="orig_target_sizes">
					<dim>-1</dim>
					<dim>2</dim>
				</port>
			</output>
		</layer>
		<layer id="2" name="Constant_13724" type="Const" version="opset1">
			<data element_type="f32" shape="1, 1, 80" offset="0" size="320" />
			<output>
				<port id="0" precision="FP32">
					<dim>1</dim>
					<dim>1</dim>
					<dim>80</dim>
				</port>
			</output>
		</layer>
		<layer id="3" name="Constant_13717" type="Const" version="opset1">
			<data element_type="f32" shape="1, 1, 256" offset="320" size="1024" />
			<output>
				<port id="0" precision="FP32">
					<dim>1</dim>
					<dim>1</dim>
					<dim>256</dim>
				</port>
			</output>
		</layer>
		<layer id="4" name="Constant_13686" type="Const" version="opset1">
			<data element_type="f32" shape="1, 1, 256" offset="1344" size="1024" />
			<output>
				<port id="0" precision="FP32">
					<dim>1</dim>
					<dim>1</dim>
					<dim>256</dim>
				</port>
			</output>
		</layer>
		<layer id="5" name="Constant_13649" type="Const" version="opset1">
			<data element_type="f32" shape="1, 1, 256" offset="2368" size="1024" />
			<output>
				<port id="0" precision="FP32">
					<dim>1</dim>
					<dim>1</dim>
					<dim>256</dim>
				</port>
			</output>
		</layer>
		<layer id="6" name="Constant_13627" type="Const" version="opset1">
			<data element_type="f32" shape="1, 1, 128" offset="3392" size="512" />
			<output>
				<port id="0" precision="FP32">
					<dim>1</dim>
					<dim>1</dim>
					<dim>128</dim>
				</port>
			</output>
		</layer>
		<layer id="7" name="Constant_13614" type="Const" version="opset1">
			<data element_type="f32" shape="1, 1, 1, 1" offset="3904" size="4" />
			<output>
				<port id="0" precision="FP32">
					<dim>1</dim>
					<dim>1</dim>
					<dim>1</dim>
					<dim>1</dim>
				</port>
			</output>
		</layer>
		<layer id="8" name="Constant_13612" type="Const" version="opset1">
			<data element_type="f32" shape="1, 1, 1, 1" offset="3908" size="4" />
			<output>
				<port id="0" precision="FP32">
					<dim>1</dim>
					<dim>1</dim>
					<dim>1</dim>
					<dim>1</dim>
				</port>
			</output>
		</layer>
		<layer id="9" name="Constant_13604" type="Const" version="opset1">
			<data element_type="f32" shape="1, 1, 1, 1" offset="3912" size="4" />
			<output>
				<port id="0" precision="FP32">
					<dim>1</dim>
					<dim>1</dim>
					<dim>1</dim>
					<dim>1</dim>
				</port>
			</output>
		</layer>
		<layer id="10" name="Constant_13602" type="Const" version="opset1">
			<data element_type="f32" shape="1, 1, 1, 1" offset="3916" size="4" />
			<output>
				<port id="0" precision="FP32">
					<dim>1</dim>
					<dim>1</dim>
					<dim>1</dim>
					<dim>1</dim>
				</port>
			</output>
		</layer>
		<layer id="11" name="Constant_13594" type="Const" version="opset1">
			<data element_type="f32" shape="1, 1, 1, 1" offset="3920" size="4" />
			<output>
				<port id="0" precision="FP32">
					<dim>1</dim>
					<dim>1</dim>
					<dim>1</dim>
					<dim>1</dim>
				</port>
			</output>
		</layer>
		<layer id="12" name="Constant_13592" type="Const" version="opset1">
			<data element_type="f32" shape="1, 1, 1, 1" offset="3924" size="4" />
			<output>
				<port id="0" precision="FP32">
					<dim>1</dim>
					<dim>1</dim>
					<dim>1</dim>
					<dim>1</dim>
				</port>
			</output>
		</layer>
		<layer id="13" name="Constant_13584" type="Const" version="opset1">
			<data element_type="f32" shape="1, 1, 1, 1" offset="3928" size="4" />
			<output>
				<port id="0" precision="FP32">
					<dim>1</dim>
					<dim>1</dim>
					<dim>1</dim>
					<dim>1</dim>
				</port>
			</output>
		</layer>
		<layer id="14" name="Constant_13582" type="Const" version="opset1">
			<data element_type="f32" shape="1, 1, 1, 1" offset="3932" size="4" />
			<output>
				<port id="0" precision="FP32">
					<dim>1</dim>
					<dim>1</dim>
					<dim>1</dim>
					<dim>1</dim>
				</port>
			</output>
		</layer>
		<layer id="15" name="Constant_13574" type="Const" version="opset1">
			<data element_type="f32" shape="1, 1, 1, 1" offset="3936" size="4" />
			<output>
				<port id="0" precision="FP32">
					<dim>1</dim>
					<dim>1</dim>
					<dim>1</dim>
					<dim>1</dim>
				</port>
			</output>
		</layer>
		<layer id="16" name="Constant_13572" type="Const" version="opset1">
			<data element_type="f32" shape="1, 1, 1, 1" offset="3940" size="4" />
			<output>
				<port id="0" precision="FP32">
					<dim>1</dim>
					<dim>1</dim>
					<dim>1</dim>
					<dim>1</dim>
				</port>
			</output>
		</layer>
		<layer id="17" name="Constant_13564" type="Const" version="opset1">
			<data element_type="f32" shape="1, 1, 1, 1" offset="3944" size="4" />
			<output>
				<port id="0" precision="FP32">
					<dim>1</dim>
					<dim>1</dim>
					<dim>1</dim>
					<dim>1</dim>
				</port>
			</output>
		</layer>
		<layer id="18" name="Constant_13562" type="Const" version="opset1">
			<data element_type="f32" shape="1, 1, 1, 1" offset="3948" size="4" />
			<output>
				<port id="0" precision="FP32">
					<dim>1</dim>
					<dim>1</dim>
					<dim>1</dim>
					<dim>1</dim>
				</port>
			</output>
		</layer>
		<layer id="19" name="Constant_13556" type="Const" version="opset1">
			<data element_type="f32" shape="1, 1, 1, 1" offset="3952" size="4" />
			<output>
				<port id="0" precision="FP32">
					<dim>1</dim>
					<dim>1</dim>
					<dim>1</dim>
					<dim>1</dim>
				</port>
			</output>
		</layer>
		<layer id="20" name="images/fq_output_0/input_low" type="Const" version="opset1">
			<data element_type="f32" shape="" offset="3956" size="4" />
			<output>
				<port id="0" precision="FP32" />
			</output>
		</layer>
		<layer id="21" name="images/fq_output_0/input_high" type="Const" version="opset1">
			<data element_type="f32" shape="" offset="3960" size="4" />
			<output>
				<port id="0" precision="FP32" />
			</output>
		</layer>
		<layer id="22" name="images/fq_output_0/output_low" type="Const" version="opset1">
			<data element_type="f32" shape="" offset="3956" size="4" />
			<output>
				<port id="0" precision="FP32" />
			</output>
		</layer>
		<layer id="23" name="images/fq_output_0/output_high" type="Const" version="opset1">
			<data element_type="f32" shape="" offset="3960" size="4" />
			<output>
				<port id="0" precision="FP32" />
			</output>
		</layer>
		<layer id="24" name="images/fq_output_0" type="FakeQuantize" version="opset1">
			<data levels="256" auto_broadcast="numpy" />
			<input>
				<port id="0" precision="FP32">
					<dim>1</dim>
					<dim>3</dim>
					<dim>640</dim>
					<dim>640</dim>
				</port>
				<port id="1" precision="FP32" />
				<port id="2" precision="FP32" />
				<port id="3" precision="FP32" />
				<port id="4" precision="FP32" />
			</input>
			<output>
				<port id="5" precision="FP32">
					<dim>1</dim>
					<dim>3</dim>
					<dim>640</dim>
					<dim>640</dim>
				</port>
			</output>
		</layer>
		<layer id="25" name="Constant_555980" type="Const" version="opset1">
			<data element_type="i8" shape="16, 3, 3, 3" offset="3964" size="432" />
			<output>
				<port id="0" precision="I8">
					<dim>16</dim>
					<dim>3</dim>
					<dim>3</dim>
					<dim>3</dim>
				</port>
			</output>
		</layer>
		<layer id="26" name="Convert_555981" type="Convert" version="opset1">
			<data destination_type="f32" />
			<input>
				<port id="0" precision="I8">
					<dim>16</dim>
					<dim>3</dim>
					<dim>3</dim>
					<dim>3</dim>
				</port>
			</input>
			<output>
				<port id="1" precision="FP32">
					<dim>16</dim>
					<dim>3</dim>
					<dim>3</dim>
					<dim>3</dim>
				</port>
			</output>
		</layer>
		<layer id="27" name="Constant_555982" type="Const" version="opset1">
			<data element_type="f32" shape="16, 1, 1, 1" offset="4396" size="64" />
			<output>
				<port id="0" precision="FP32">
					<dim>16</dim>
					<dim>1</dim>
					<dim>1</dim>
					<dim>1</dim>
				</port>
			</output>
		</layer>
		<layer id="28" name="/model/backbone/stem/stem1/conv/Conv/WithoutBiases/fq_weights_1" type="Multiply" version="opset1">
			<data auto_broadcast="numpy" />
			<input>
				<port id="0" precision="FP32">
					<dim>16</dim>
					<dim>3</dim>
					<dim>3</dim>
					<dim>3</dim>
				</port>
				<port id="1" precision="FP32">
					<dim>16</dim>
					<dim>1</dim>
					<dim>1</dim>
					<dim>1</dim>
				</port>
			</input>
			<output>
				<port id="2" precision="FP32">
					<dim>16</dim>
					<dim>3</dim>
					<dim>3</dim>
					<dim>3</dim>
				</port>
			</output>
		</layer>
		<layer id="29" name="/model/backbone/stem/stem1/conv/Conv/WithoutBiases" type="Convolution" version="opset1">
			<data strides="2, 2" dilations="1, 1" pads_begin="1, 1" pads_end="1, 1" auto_pad="explicit" />
			<input>
				<port id="0" precision="FP32">
					<dim>1</dim>
					<dim>3</dim>
					<dim>640</dim>
					<dim>640</dim>
				</port>
				<port id="1" precision="FP32">
					<dim>16</dim>
					<dim>3</dim>
					<dim>3</dim>
					<dim>3</dim>
				</port>
			</input>
			<output>
				<port id="2" precision="FP32">
					<dim>1</dim>
					<dim>16</dim>
					<dim>320</dim>
					<dim>320</dim>
				</port>
			</output>
		</layer>
		<layer id="30" name="Reshape_411" type="Const" version="opset1">
			<data element_type="f32" shape="1, 16, 1, 1" offset="4460" size="64" />
			<output>
				<port id="0" precision="FP32">
					<dim>1</dim>
					<dim>16</dim>
					<dim>1</dim>
					<dim>1</dim>
				</port>
			</output>
		</layer>
		<layer id="31" name="/model/backbone/stem/stem1/conv/Conv" type="Add" version="opset1">
			<data auto_broadcast="numpy" />
			<input>
				<port id="0" precision="FP32">
					<dim>1</dim>
					<dim>16</dim>
					<dim>320</dim>
					<dim>320</dim>
				</port>
				<port id="1" precision="FP32">
					<dim>1</dim>
					<dim>16</dim>
					<dim>1</dim>
					<dim>1</dim>
				</port>
			</input>
			<output>
				<port id="2" precision="FP32" names="/model/backbone/stem/stem1/conv/Conv_output_0">
					<dim>1</dim>
					<dim>16</dim>
					<dim>320</dim>
					<dim>320</dim>
				</port>
			</output>
		</layer>
		<layer id="32" name="/model/backbone/stem/stem1/act/Relu" type="ReLU" version="opset1">
			<input>
				<port id="0" precision="FP32">
					<dim>1</dim>
					<dim>16</dim>
					<dim>320</dim>
					<dim>320</dim>
				</port>
			</input>
			<output>
				<port id="1" precision="FP32" names="/model/backbone/stem/stem1/act/Relu_output_0">
					<dim>1</dim>
					<dim>16</dim>
					<dim>320</dim>
					<dim>320</dim>
				</port>
			</output>
		</layer>
		<layer id="33" name="/model/backbone/stem/stem1/lab/Mul" type="Multiply" version="opset1">
			<data auto_broadcast="numpy" />
			<input>
				<port id="0" precision="FP32">
					<dim>1</dim>
					<dim>1</dim>
					<dim>1</dim>
					<dim>1</dim>
				</port>
				<port id="1" precision="FP32">
					<dim>1</dim>
					<dim>16</dim>
					<dim>320</dim>
					<dim>320</dim>
				</port>
			</input>
			<output>
				<port id="2" precision="FP32" names="/model/backbone/stem/stem1/lab/Mul_output_0">
					<dim>1</dim>
					<dim>16</dim>
					<dim>320</dim>
					<dim>320</dim>
				</port>
			</output>
		</layer>
		<layer id="34" name="Constant_13557" type="Const" version="opset1">
			<data element_type="f32" shape="1, 1, 1, 1" offset="4524" size="4" />
			<output>
				<port id="0" precision="FP32">
					<dim>1</dim>
					<dim>1</dim>
					<dim>1</dim>
					<dim>1</dim>
				</port>
			</output>
		</layer>
		<layer id="35" name="/model/backbone/stem/stem1/lab/Add" type="Add" version="opset1">
			<data auto_broadcast="numpy" />
			<input>
				<port id="0" precision="FP32">
					<dim>1</dim>
					<dim>16</dim>
					<dim>320</dim>
					<dim>320</dim>
				</port>
				<port id="1" precision="FP32">
					<dim>1</dim>
					<dim>1</dim>
					<dim>1</dim>
					<dim>1</dim>
				</port>
			</input>
			<output>
				<port id="2" precision="FP32" names="/model/backbone/stem/stem1/lab/Add_output_0">
					<dim>1</dim>
					<dim>16</dim>
					<dim>320</dim>
					<dim>320</dim>
				</port>
			</output>
		</layer>
		<layer id="36" name="/model/backbone/stem/stem1/lab/Add/fq_output_0/input_low" type="Const" version="opset1">
			<data element_type="f32" shape="" offset="4528" size="4" />
			<output>
				<port id="0" precision="FP32" />
			</output>
		</layer>
		<layer id="37" name="/model/backbone/stem/stem1/lab/Add/fq_output_0/input_high" type="Const" version="opset1">
			<data element_type="f32" shape="" offset="4532" size="4" />
			<output>
				<port id="0" precision="FP32" />
			</output>
		</layer>
		<layer id="38" name="/model/backbone/stem/stem1/lab/Add/fq_output_0/output_low" type="Const" version="opset1">
			<data element_type="f32" shape="" offset="4528" size="4" />
			<output>
				<port id="0" precision="FP32" />
			</output>
		</layer>
		<layer id="39" name="/model/backbone/stem/stem1/lab/Add/fq_output_0/output_high" type="Const" version="opset1">
			<data element_type="f32" shape="" offset="4532" size="4" />
			<output>
				<port id="0" precision="FP32" />
			</output>
		</layer>
		<layer id="40" name="/model/backbone/stem/stem1/lab/Add/fq_output_0" type="FakeQuantize" version="opset1">
			<data levels="256" auto_broadcast="numpy" />
			<input>
				<port id="0" precision="FP32">
					<dim>1</dim>
					<dim>16</dim>
					<dim>320</dim>
					<dim>320</dim>
				</port>
				<port id="1" precision="FP32" />
				<port id="2" precision="FP32" />
				<port id="3" precision="FP32" />
				<port id="4" precision="FP32" />
			</input>
			<output>
				<port id="5" precision="FP32">
					<dim>1</dim>
					<dim>16</dim>
					<dim>320</dim>
					<dim>320</dim>
				</port>
			</output>
		</layer>
		<layer id="41" name="Constant_418" type="Const" version="opset1">
			<data element_type="i64" shape="4" offset="4536" size="32" />
			<output>
				<port id="0" precision="I64">
					<dim>4</dim>
				</port>
			</output>
		</layer>
		<layer id="42" name="Constant_419" type="Const" version="opset1">
			<data element_type="i64" shape="4" offset="4568" size="32" />
			<output>
				<port id="0" precision="I64">
					<dim>4</dim>
				</port>
			</output>
		</layer>
		<layer id="43" name="Constant_417" type="Const" version="opset1">
			<data element_type="f32" shape="" offset="3956" size="4" />
			<output>
				<port id="0" precision="FP32" />
			</output>
		</layer>
		<layer id="44" name="/model/backbone/stem/Pad" type="Pad" version="opset12">
			<data pad_mode="constant" />
			<input>
				<port id="0" precision="FP32">
					<dim>1</dim>
					<dim>16</dim>
					<dim>320</dim>
					<dim>320</dim>
				</port>
				<port id="1" precision="I64">
					<dim>4</dim>
				</port>
				<port id="2" precision="I64">
					<dim>4</dim>
				</port>
				<port id="3" precision="FP32" />
			</input>
			<output>
				<port id="4" precision="FP32" names="/model/backbone/stem/Pad_output_0">
					<dim>1</dim>
					<dim>16</dim>
					<dim>321</dim>
					<dim>321</dim>
				</port>
			</output>
		</layer>
		<layer id="45" name="/model/backbone/stem/pool/MaxPool" type="MaxPool" version="opset8">
			<data strides="1, 1" dilations="1, 1" pads_begin="0, 0" pads_end="0, 0" kernel="2, 2" rounding_type="ceil" auto_pad="explicit" index_element_type="i64" axis="0" />
			<input>
				<port id="0" precision="FP32">
					<dim>1</dim>
					<dim>16</dim>
					<dim>321</dim>
					<dim>321</dim>
				</port>
			</input>
			<output>
				<port id="1" precision="FP32" names="/model/backbone/stem/pool/MaxPool_output_0">
					<dim>1</dim>
					<dim>16</dim>
					<dim>320</dim>
					<dim>320</dim>
				</port>
				<port id="2" precision="I64">
					<dim>1</dim>
					<dim>16</dim>
					<dim>320</dim>
					<dim>320</dim>
				</port>
			</output>
		</layer>
		<layer id="46" name="Constant_13560" type="Const" version="opset1">
			<data element_type="f32" shape="1, 1, 1, 1" offset="4600" size="4" />
			<output>
				<port id="0" precision="FP32">
					<dim>1</dim>
					<dim>1</dim>
					<dim>1</dim>
					<dim>1</dim>
				</port>
			</output>
		</layer>
		<layer id="47" name="Constant_13558" type="Const" version="opset1">
			<data element_type="f32" shape="1, 1, 1, 1" offset="4604" size="4" />
			<output>
				<port id="0" precision="FP32">
					<dim>1</dim>
					<dim>1</dim>
					<dim>1</dim>
					<dim>1</dim>
				</port>
			</output>
		</layer>
		<layer id="48" name="Constant_555984" type="Const" version="opset1">
			<data element_type="i8" shape="8, 16, 2, 2" offset="4608" size="512" />
			<output>
				<port id="0" precision="I8">
					<dim>8</dim>
					<dim>16</dim>
					<dim>2</dim>
					<dim>2</dim>
				</port>
			</output>
		</layer>
		<layer id="49" name="Convert_555985" type="Convert" version="opset1">
			<data destination_type="f32" />
			<input>
				<port id="0" precision="I8">
					<dim>8</dim>
					<dim>16</dim>
					<dim>2</dim>
					<dim>2</dim>
				</port>
			</input>
			<output>
				<port id="1" precision="FP32">
					<dim>8</dim>
					<dim>16</dim>
					<dim>2</dim>
					<dim>2</dim>
				</port>
			</output>
		</layer>
		<layer id="50" name="Constant_555986" type="Const" version="opset1">
			<data element_type="f32" shape="8, 1, 1, 1" offset="5120" size="32" />
			<output>
				<port id="0" precision="FP32">
					<dim>8</dim>
					<dim>1</dim>
					<dim>1</dim>
					<dim>1</dim>
				</port>
			</output>
		</layer>
		<layer id="51" name="/model/backbone/stem/stem2a/conv/Conv/WithoutBiases/fq_weights_1" type="Multiply" version="opset1">
			<data auto_broadcast="numpy" />
			<input>
				<port id="0" precision="FP32">
					<dim>8</dim>
					<dim>16</dim>
					<dim>2</dim>
					<dim>2</dim>
				</port>
				<port id="1" precision="FP32">
					<dim>8</dim>
					<dim>1</dim>
					<dim>1</dim>
					<dim>1</dim>
				</port>
			</input>
			<output>
				<port id="2" precision="FP32">
					<dim>8</dim>
					<dim>16</dim>
					<dim>2</dim>
					<dim>2</dim>
				</port>
			</output>
		</layer>
		<layer id="52" name="/model/backbone/stem/stem2a/conv/Conv/WithoutBiases" type="Convolution" version="opset1">
			<data strides="1, 1" dilations="1, 1" pads_begin="0, 0" pads_end="0, 0" auto_pad="explicit" />
			<input>
				<port id="0" precision="FP32">
					<dim>1</dim>
					<dim>16</dim>
					<dim>321</dim>
					<dim>321</dim>
				</port>
				<port id="1" precision="FP32">
					<dim>8</dim>
					<dim>16</dim>
					<dim>2</dim>
					<dim>2</dim>
				</port>
			</input>
			<output>
				<port id="2" precision="FP32">
					<dim>1</dim>
					<dim>8</dim>
					<dim>320</dim>
					<dim>320</dim>
				</port>
			</output>
		</layer>
		<layer id="53" name="Reshape_432" type="Const" version="opset1">
			<data element_type="f32" shape="1, 8, 1, 1" offset="5152" size="32" />
			<output>
				<port id="0" precision="FP32">
					<dim>1</dim>
					<dim>8</dim>
					<dim>1</dim>
					<dim>1</dim>
				</port>
			</output>
		</layer>
		<layer id="54" name="/model/backbone/stem/stem2a/conv/Conv" type="Add" version="opset1">
			<data auto_broadcast="numpy" />
			<input>
				<port id="0" precision="FP32">
					<dim>1</dim>
					<dim>8</dim>
					<dim>320</dim>
					<dim>320</dim>
				</port>
				<port id="1" precision="FP32">
					<dim>1</dim>
					<dim>8</dim>
					<dim>1</dim>
					<dim>1</dim>
				</port>
			</input>
			<output>
				<port id="2" precision="FP32" names="/model/backbone/stem/stem2a/conv/Conv_output_0">
					<dim>1</dim>
					<dim>8</dim>
					<dim>320</dim>
					<dim>320</dim>
				</port>
			</output>
		</layer>
		<layer id="55" name="/model/backbone/stem/stem2a/act/Relu" type="ReLU" version="opset1">
			<input>
				<port id="0" precision="FP32">
					<dim>1</dim>
					<dim>8</dim>
					<dim>320</dim>
					<dim>320</dim>
				</port>
			</input>
			<output>
				<port id="1" precision="FP32" names="/model/backbone/stem/stem2a/act/Relu_output_0">
					<dim>1</dim>
					<dim>8</dim>
					<dim>320</dim>
					<dim>320</dim>
				</port>
			</output>
		</layer>
		<layer id="56" name="/model/backbone/stem/stem2a/lab/Mul" type="Multiply" version="opset1">
			<data auto_broadcast="numpy" />
			<input>
				<port id="0" precision="FP32">
					<dim>1</dim>
					<dim>1</dim>
					<dim>1</dim>
					<dim>1</dim>
				</port>
				<port id="1" precision="FP32">
					<dim>1</dim>
					<dim>8</dim>
					<dim>320</dim>
					<dim>320</dim>
				</port>
			</input>
			<output>
				<port id="2" precision="FP32" names="/model/backbone/stem/stem2a/lab/Mul_output_0">
					<dim>1</dim>
					<dim>8</dim>
					<dim>320</dim>
					<dim>320</dim>
				</port>
			</output>
		</layer>
		<layer id="57" name="Constant_13559" type="Const" version="opset1">
			<data element_type="f32" shape="1, 1, 1, 1" offset="5184" size="4" />
			<output>
				<port id="0" precision="FP32">
					<dim>1</dim>
					<dim>1</dim>
					<dim>1</dim>
					<dim>1</dim>
				</port>
			</output>
		</layer>
		<layer id="58" name="/model/backbone/stem/stem2a/lab/Add" type="Add" version="opset1">
			<data auto_broadcast="numpy" />
			<input>
				<port id="0" precision="FP32">
					<dim>1</dim>
					<dim>8</dim>
					<dim>320</dim>
					<dim>320</dim>
				</port>
				<port id="1" precision="FP32">
					<dim>1</dim>
					<dim>1</dim>
					<dim>1</dim>
					<dim>1</dim>
				</port>
			</input>
			<output>
				<port id="2" precision="FP32" names="/model/backbone/stem/stem2a/lab/Add_output_0">
					<dim>1</dim>
					<dim>8</dim>
					<dim>320</dim>
					<dim>320</dim>
				</port>
			</output>
		</layer>
		<layer id="59" name="/model/backbone/stem/stem2a/lab/Add/fq_output_0/input_low" type="Const" version="opset1">
			<data element_type="f32" shape="" offset="5188" size="4" />
			<output>
				<port id="0" precision="FP32" />
			</output>
		</layer>
		<layer id="60" name="/model/backbone/stem/stem2a/lab/Add/fq_output_0/input_high" type="Const" version="opset1">
			<data element_type="f32" shape="" offset="5192" size="4" />
			<output>
				<port id="0" precision="FP32" />
			</output>
		</layer>
		<layer id="61" name="/model/backbone/stem/stem2a/lab/Add/fq_output_0/output_low" type="Const" version="opset1">
			<data element_type="f32" shape="" offset="5188" size="4" />
			<output>
				<port id="0" precision="FP32" />
			</output>
		</layer>
		<layer id="62" name="/model/backbone/stem/stem2a/lab/Add/fq_output_0/output_high" type="Const" version="opset1">
			<data element_type="f32" shape="" offset="5192" size="4" />
			<output>
				<port id="0" precision="FP32" />
			</output>
		</layer>
		<layer id="63" name="/model/backbone/stem/stem2a/lab/Add/fq_output_0" type="FakeQuantize" version="opset1">
			<data levels="256" auto_broadcast="numpy" />
			<input>
				<port id="0" precision="FP32">
					<dim>1</dim>
					<dim>8</dim>
					<dim>320</dim>
					<dim>320</dim>
				</port>
				<port id="1" precision="FP32" />
				<port id="2" precision="FP32" />
				<port id="3" precision="FP32" />
				<port id="4" precision="FP32" />
			</input>
			<output>
				<port id="5" precision="FP32">
					<dim>1</dim>
					<dim>8</dim>
					<dim>320</dim>
					<dim>320</dim>
				</port>
			</output>
		</layer>
		<layer id="64" name="Constant_555988" type="Const" version="opset1">
			<data element_type="i8" shape="16, 8, 2, 2" offset="5196" size="512" />
			<output>
				<port id="0" precision="I8">
					<dim>16</dim>
					<dim>8</dim>
					<dim>2</dim>
					<dim>2</dim>
				</port>
			</output>
		</layer>
		<layer id="65" name="Convert_555989" type="Convert" version="opset1">
			<data destination_type="f32" />
			<input>
				<port id="0" precision="I8">
					<dim>16</dim>
					<dim>8</dim>
					<dim>2</dim>
					<dim>2</dim>
				</port>
			</input>
			<output>
				<port id="1" precision="FP32">
					<dim>16</dim>
					<dim>8</dim>
					<dim>2</dim>
					<dim>2</dim>
				</port>
			</output>
		</layer>
		<layer id="66" name="Constant_555990" type="Const" version="opset1">
			<data element_type="f32" shape="16, 1, 1, 1" offset="5708" size="64" />
			<output>
				<port id="0" precision="FP32">
					<dim>16</dim>
					<dim>1</dim>
					<dim>1</dim>
					<dim>1</dim>
				</port>
			</output>
		</layer>
		<layer id="67" name="/model/backbone/stem/stem2b/conv/Conv/WithoutBiases/fq_weights_1" type="Multiply" version="opset1">
			<data auto_broadcast="numpy" />
			<input>
				<port id="0" precision="FP32">
					<dim>16</dim>
					<dim>8</dim>
					<dim>2</dim>
					<dim>2</dim>
				</port>
				<port id="1" precision="FP32">
					<dim>16</dim>
					<dim>1</dim>
					<dim>1</dim>
					<dim>1</dim>
				</port>
			</input>
			<output>
				<port id="2" precision="FP32">
					<dim>16</dim>
					<dim>8</dim>
					<dim>2</dim>
					<dim>2</dim>
				</port>
			</output>
		</layer>
		<layer id="68" name="/model/backbone/stem/stem2b/conv/Conv/WithoutBiases" type="Convolution" version="opset1">
			<data strides="1, 1" dilations="1, 1" pads_begin="0, 0" pads_end="1, 1" auto_pad="explicit" />
			<input>
				<port id="0" precision="FP32">
					<dim>1</dim>
					<dim>8</dim>
					<dim>320</dim>
					<dim>320</dim>
				</port>
				<port id="1" precision="FP32">
					<dim>16</dim>
					<dim>8</dim>
					<dim>2</dim>
					<dim>2</dim>
				</port>
			</input>
			<output>
				<port id="2" precision="FP32">
					<dim>1</dim>
					<dim>16</dim>
					<dim>320</dim>
					<dim>320</dim>
				</port>
			</output>
		</layer>
		<layer id="69" name="Reshape_448" type="Const" version="opset1">
			<data element_type="f32" shape="1, 16, 1, 1" offset="5772" size="64" />
			<output>
				<port id="0" precision="FP32">
					<dim>1</dim>
					<dim>16</dim>
					<dim>1</dim>
					<dim>1</dim>
				</port>
			</output>
		</layer>
		<layer id="70" name="/model/backbone/stem/stem2b/conv/Conv" type="Add" version="opset1">
			<data auto_broadcast="numpy" />
			<input>
				<port id="0" precision="FP32">
					<dim>1</dim>
					<dim>16</dim>
					<dim>320</dim>
					<dim>320</dim>
				</port>
				<port id="1" precision="FP32">
					<dim>1</dim>
					<dim>16</dim>
					<dim>1</dim>
					<dim>1</dim>
				</port>
			</input>
			<output>
				<port id="2" precision="FP32" names="/model/backbone/stem/stem2b/conv/Conv_output_0">
					<dim>1</dim>
					<dim>16</dim>
					<dim>320</dim>
					<dim>320</dim>
				</port>
			</output>
		</layer>
		<layer id="71" name="/model/backbone/stem/stem2b/act/Relu" type="ReLU" version="opset1">
			<input>
				<port id="0" precision="FP32">
					<dim>1</dim>
					<dim>16</dim>
					<dim>320</dim>
					<dim>320</dim>
				</port>
			</input>
			<output>
				<port id="1" precision="FP32" names="/model/backbone/stem/stem2b/act/Relu_output_0">
					<dim>1</dim>
					<dim>16</dim>
					<dim>320</dim>
					<dim>320</dim>
				</port>
			</output>
		</layer>
		<layer id="72" name="/model/backbone/stem/stem2b/lab/Mul" type="Multiply" version="opset1">
			<data auto_broadcast="numpy" />
			<input>
				<port id="0" precision="FP32">
					<dim>1</dim>
					<dim>1</dim>
					<dim>1</dim>
					<dim>1</dim>
				</port>
				<port id="1" precision="FP32">
					<dim>1</dim>
					<dim>16</dim>
					<dim>320</dim>
					<dim>320</dim>
				</port>
			</input>
			<output>
				<port id="2" precision="FP32" names="/model/backbone/stem/stem2b/lab/Mul_output_0">
					<dim>1</dim>
					<dim>16</dim>
					<dim>320</dim>
					<dim>320</dim>
				</port>
			</output>
		</layer>
		<layer id="73" name="Constant_13561" type="Const" version="opset1">
			<data element_type="f32" shape="1, 1, 1, 1" offset="5836" size="4" />
			<output>
				<port id="0" precision="FP32">
					<dim>1</dim>
					<dim>1</dim>
					<dim>1</dim>
					<dim>1</dim>
				</port>
			</output>
		</layer>
		<layer id="74" name="/model/backbone/stem/stem2b/lab/Add" type="Add" version="opset1">
			<data auto_broadcast="numpy" />
			<input>
				<port id="0" precision="FP32">
					<dim>1</dim>
					<dim>16</dim>
					<dim>320</dim>
					<dim>320</dim>
				</port>
				<port id="1" precision="FP32">
					<dim>1</dim>
					<dim>1</dim>
					<dim>1</dim>
					<dim>1</dim>
				</port>
			</input>
			<output>
				<port id="2" precision="FP32" names="/model/backbone/stem/stem2b/lab/Add_output_0">
					<dim>1</dim>
					<dim>16</dim>
					<dim>320</dim>
					<dim>320</dim>
				</port>
			</output>
		</layer>
		<layer id="75" name="/model/backbone/stem/stem2b/lab/Add/fq_output_0/input_low" type="Const" version="opset1">
			<data element_type="f32" shape="" offset="4528" size="4" />
			<output>
				<port id="0" precision="FP32" />
			</output>
		</layer>
		<layer id="76" name="/model/backbone/stem/stem2b/lab/Add/fq_output_0/input_high" type="Const" version="opset1">
			<data element_type="f32" shape="" offset="4532" size="4" />
			<output>
				<port id="0" precision="FP32" />
			</output>
		</layer>
		<layer id="77" name="/model/backbone/stem/stem2b/lab/Add/fq_output_0/output_low" type="Const" version="opset1">
			<data element_type="f32" shape="" offset="4528" size="4" />
			<output>
				<port id="0" precision="FP32" />
			</output>
		</layer>
		<layer id="78" name="/model/backbone/stem/stem2b/lab/Add/fq_output_0/output_high" type="Const" version="opset1">
			<data element_type="f32" shape="" offset="4532" size="4" />
			<output>
				<port id="0" precision="FP32" />
			</output>
		</layer>
		<layer id="79" name="/model/backbone/stem/stem2b/lab/Add/fq_output_0" type="FakeQuantize" version="opset1">
			<data levels="256" auto_broadcast="numpy" />
			<input>
				<port id="0" precision="FP32">
					<dim>1</dim>
					<dim>16</dim>
					<dim>320</dim>
					<dim>320</dim>
				</port>
				<port id="1" precision="FP32" />
				<port id="2" precision="FP32" />
				<port id="3" precision="FP32" />
				<port id="4" precision="FP32" />
			</input>
			<output>
				<port id="5" precision="FP32">
					<dim>1</dim>
					<dim>16</dim>
					<dim>320</dim>
					<dim>320</dim>
				</port>
			</output>
		</layer>
		<layer id="80" name="/model/backbone/stem/Concat_2" type="Concat" version="opset1">
			<data axis="1" />
			<input>
				<port id="0" precision="FP32">
					<dim>1</dim>
					<dim>16</dim>
					<dim>320</dim>
					<dim>320</dim>
				</port>
				<port id="1" precision="FP32">
					<dim>1</dim>
					<dim>16</dim>
					<dim>320</dim>
					<dim>320</dim>
				</port>
			</input>
			<output>
				<port id="2" precision="FP32" names="/model/backbone/stem/Concat_2_output_0">
					<dim>1</dim>
					<dim>32</dim>
					<dim>320</dim>
					<dim>320</dim>
				</port>
			</output>
		</layer>
		<layer id="81" name="Constant_555992" type="Const" version="opset1">
			<data element_type="i8" shape="16, 32, 3, 3" offset="5840" size="4608" />
			<output>
				<port id="0" precision="I8">
					<dim>16</dim>
					<dim>32</dim>
					<dim>3</dim>
					<dim>3</dim>
				</port>
			</output>
		</layer>
		<layer id="82" name="Convert_555993" type="Convert" version="opset1">
			<data destination_type="f32" />
			<input>
				<port id="0" precision="I8">
					<dim>16</dim>
					<dim>32</dim>
					<dim>3</dim>
					<dim>3</dim>
				</port>
			</input>
			<output>
				<port id="1" precision="FP32">
					<dim>16</dim>
					<dim>32</dim>
					<dim>3</dim>
					<dim>3</dim>
				</port>
			</output>
		</layer>
		<layer id="83" name="Constant_555994" type="Const" version="opset1">
			<data element_type="f32" shape="16, 1, 1, 1" offset="10448" size="64" />
			<output>
				<port id="0" precision="FP32">
					<dim>16</dim>
					<dim>1</dim>
					<dim>1</dim>
					<dim>1</dim>
				</port>
			</output>
		</layer>
		<layer id="84" name="/model/backbone/stem/stem3/conv/Conv/WithoutBiases/fq_weights_1" type="Multiply" version="opset1">
			<data auto_broadcast="numpy" />
			<input>
				<port id="0" precision="FP32">
					<dim>16</dim>
					<dim>32</dim>
					<dim>3</dim>
					<dim>3</dim>
				</port>
				<port id="1" precision="FP32">
					<dim>16</dim>
					<dim>1</dim>
					<dim>1</dim>
					<dim>1</dim>
				</port>
			</input>
			<output>
				<port id="2" precision="FP32">
					<dim>16</dim>
					<dim>32</dim>
					<dim>3</dim>
					<dim>3</dim>
				</port>
			</output>
		</layer>
		<layer id="85" name="/model/backbone/stem/stem3/conv/Conv/WithoutBiases" type="Convolution" version="opset1">
			<data strides="2, 2" dilations="1, 1" pads_begin="1, 1" pads_end="1, 1" auto_pad="explicit" />
			<input>
				<port id="0" precision="FP32">
					<dim>1</dim>
					<dim>32</dim>
					<dim>320</dim>
					<dim>320</dim>
				</port>
				<port id="1" precision="FP32">
					<dim>16</dim>
					<dim>32</dim>
					<dim>3</dim>
					<dim>3</dim>
				</port>
			</input>
			<output>
				<port id="2" precision="FP32">
					<dim>1</dim>
					<dim>16</dim>
					<dim>160</dim>
					<dim>160</dim>
				</port>
			</output>
		</layer>
		<layer id="86" name="Reshape_466" type="Const" version="opset1">
			<data element_type="f32" shape="1, 16, 1, 1" offset="10512" size="64" />
			<output>
				<port id="0" precision="FP32">
					<dim>1</dim>
					<dim>16</dim>
					<dim>1</dim>
					<dim>1</dim>
				</port>
			</output>
		</layer>
		<layer id="87" name="/model/backbone/stem/stem3/conv/Conv" type="Add" version="opset1">
			<data auto_broadcast="numpy" />
			<input>
				<port id="0" precision="FP32">
					<dim>1</dim>
					<dim>16</dim>
					<dim>160</dim>
					<dim>160</dim>
				</port>
				<port id="1" precision="FP32">
					<dim>1</dim>
					<dim>16</dim>
					<dim>1</dim>
					<dim>1</dim>
				</port>
			</input>
			<output>
				<port id="2" precision="FP32" names="/model/backbone/stem/stem3/conv/Conv_output_0">
					<dim>1</dim>
					<dim>16</dim>
					<dim>160</dim>
					<dim>160</dim>
				</port>
			</output>
		</layer>
		<layer id="88" name="/model/backbone/stem/stem3/act/Relu" type="ReLU" version="opset1">
			<input>
				<port id="0" precision="FP32">
					<dim>1</dim>
					<dim>16</dim>
					<dim>160</dim>
					<dim>160</dim>
				</port>
			</input>
			<output>
				<port id="1" precision="FP32" names="/model/backbone/stem/stem3/act/Relu_output_0">
					<dim>1</dim>
					<dim>16</dim>
					<dim>160</dim>
					<dim>160</dim>
				</port>
			</output>
		</layer>
		<layer id="89" name="/model/backbone/stem/stem3/lab/Mul" type="Multiply" version="opset1">
			<data auto_broadcast="numpy" />
			<input>
				<port id="0" precision="FP32">
					<dim>1</dim>
					<dim>1</dim>
					<dim>1</dim>
					<dim>1</dim>
				</port>
				<port id="1" precision="FP32">
					<dim>1</dim>
					<dim>16</dim>
					<dim>160</dim>
					<dim>160</dim>
				</port>
			</input>
			<output>
				<port id="2" precision="FP32" names="/model/backbone/stem/stem3/lab/Mul_output_0">
					<dim>1</dim>
					<dim>16</dim>
					<dim>160</dim>
					<dim>160</dim>
				</port>
			</output>
		</layer>
		<layer id="90" name="Constant_13563" type="Const" version="opset1">
			<data element_type="f32" shape="1, 1, 1, 1" offset="10576" size="4" />
			<output>
				<port id="0" precision="FP32">
					<dim>1</dim>
					<dim>1</dim>
					<dim>1</dim>
					<dim>1</dim>
				</port>
			</output>
		</layer>
		<layer id="91" name="/model/backbone/stem/stem3/lab/Add" type="Add" version="opset1">
			<data auto_broadcast="numpy" />
			<input>
				<port id="0" precision="FP32">
					<dim>1</dim>
					<dim>16</dim>
					<dim>160</dim>
					<dim>160</dim>
				</port>
				<port id="1" precision="FP32">
					<dim>1</dim>
					<dim>1</dim>
					<dim>1</dim>
					<dim>1</dim>
				</port>
			</input>
			<output>
				<port id="2" precision="FP32" names="/model/backbone/stem/stem3/lab/Add_output_0">
					<dim>1</dim>
					<dim>16</dim>
					<dim>160</dim>
					<dim>160</dim>
				</port>
			</output>
		</layer>
		<layer id="92" name="/model/backbone/stem/stem3/lab/Add/fq_output_0/input_low" type="Const" version="opset1">
			<data element_type="f32" shape="" offset="3956" size="4" />
			<output>
				<port id="0" precision="FP32" />
			</output>
		</layer>
		<layer id="93" name="/model/backbone/stem/stem3/lab/Add/fq_output_0/input_high" type="Const" version="opset1">
			<data element_type="f32" shape="" offset="10580" size="4" />
			<output>
				<port id="0" precision="FP32" />
			</output>
		</layer>
		<layer id="94" name="/model/backbone/stem/stem3/lab/Add/fq_output_0/output_low" type="Const" version="opset1">
			<data element_type="f32" shape="" offset="3956" size="4" />
			<output>
				<port id="0" precision="FP32" />
			</output>
		</layer>
		<layer id="95" name="/model/backbone/stem/stem3/lab/Add/fq_output_0/output_high" type="Const" version="opset1">
			<data element_type="f32" shape="" offset="10580" size="4" />
			<output>
				<port id="0" precision="FP32" />
			</output>
		</layer>
		<layer id="96" name="/model/backbone/stem/stem3/lab/Add/fq_output_0" type="FakeQuantize" version="opset1">
			<data levels="256" auto_broadcast="numpy" />
			<input>
				<port id="0" precision="FP32">
					<dim>1</dim>
					<dim>16</dim>
					<dim>160</dim>
					<dim>160</dim>
				</port>
				<port id="1" precision="FP32" />
				<port id="2" precision="FP32" />
				<port id="3" precision="FP32" />
				<port id="4" precision="FP32" />
			</input>
			<output>
				<port id="5" precision="FP32">
					<dim>1</dim>
					<dim>16</dim>
					<dim>160</dim>
					<dim>160</dim>
				</port>
			</output>
		</layer>
		<layer id="97" name="Constant_555996" type="Const" version="opset1">
			<data element_type="i8" shape="16, 16, 1, 1" offset="10584" size="256" />
			<output>
				<port id="0" precision="I8">
					<dim>16</dim>
					<dim>16</dim>
					<dim>1</dim>
					<dim>1</dim>
				</port>
			</output>
		</layer>
		<layer id="98" name="Convert_555997" type="Convert" version="opset1">
			<data destination_type="f32" />
			<input>
				<port id="0" precision="I8">
					<dim>16</dim>
					<dim>16</dim>
					<dim>1</dim>
					<dim>1</dim>
				</port>
			</input>
			<output>
				<port id="1" precision="FP32">
					<dim>16</dim>
					<dim>16</dim>
					<dim>1</dim>
					<dim>1</dim>
				</port>
			</output>
		</layer>
		<layer id="99" name="Constant_555998" type="Const" version="opset1">
			<data element_type="f32" shape="16, 1, 1, 1" offset="10840" size="64" />
			<output>
				<port id="0" precision="FP32">
					<dim>16</dim>
					<dim>1</dim>
					<dim>1</dim>
					<dim>1</dim>
				</port>
			</output>
		</layer>
		<layer id="100" name="/model/backbone/stem/stem4/conv/Conv/WithoutBiases/fq_weights_1" type="Multiply" version="opset1">
			<data auto_broadcast="numpy" />
			<input>
				<port id="0" precision="FP32">
					<dim>16</dim>
					<dim>16</dim>
					<dim>1</dim>
					<dim>1</dim>
				</port>
				<port id="1" precision="FP32">
					<dim>16</dim>
					<dim>1</dim>
					<dim>1</dim>
					<dim>1</dim>
				</port>
			</input>
			<output>
				<port id="2" precision="FP32">
					<dim>16</dim>
					<dim>16</dim>
					<dim>1</dim>
					<dim>1</dim>
				</port>
			</output>
		</layer>
		<layer id="101" name="/model/backbone/stem/stem4/conv/Conv/WithoutBiases" type="Convolution" version="opset1">
			<data strides="1, 1" dilations="1, 1" pads_begin="0, 0" pads_end="0, 0" auto_pad="explicit" />
			<input>
				<port id="0" precision="FP32">
					<dim>1</dim>
					<dim>16</dim>
					<dim>160</dim>
					<dim>160</dim>
				</port>
				<port id="1" precision="FP32">
					<dim>16</dim>
					<dim>16</dim>
					<dim>1</dim>
					<dim>1</dim>
				</port>
			</input>
			<output>
				<port id="2" precision="FP32">
					<dim>1</dim>
					<dim>16</dim>
					<dim>160</dim>
					<dim>160</dim>
				</port>
			</output>
		</layer>
		<layer id="102" name="Reshape_482" type="Const" version="opset1">
			<data element_type="f32" shape="1, 16, 1, 1" offset="10904" size="64" />
			<output>
				<port id="0" precision="FP32">
					<dim>1</dim>
					<dim>16</dim>
					<dim>1</dim>
					<dim>1</dim>
				</port>
			</output>
		</layer>
		<layer id="103" name="/model/backbone/stem/stem4/conv/Conv" type="Add" version="opset1">
			<data auto_broadcast="numpy" />
			<input>
				<port id="0" precision="FP32">
					<dim>1</dim>
					<dim>16</dim>
					<dim>160</dim>
					<dim>160</dim>
				</port>
				<port id="1" precision="FP32">
					<dim>1</dim>
					<dim>16</dim>
					<dim>1</dim>
					<dim>1</dim>
				</port>
			</input>
			<output>
				<port id="2" precision="FP32" names="/model/backbone/stem/stem4/conv/Conv_output_0">
					<dim>1</dim>
					<dim>16</dim>
					<dim>160</dim>
					<dim>160</dim>
				</port>
			</output>
		</layer>
		<layer id="104" name="/model/backbone/stem/stem4/act/Relu" type="ReLU" version="opset1">
			<input>
				<port id="0" precision="FP32">
					<dim>1</dim>
					<dim>16</dim>
					<dim>160</dim>
					<dim>160</dim>
				</port>
			</input>
			<output>
				<port id="1" precision="FP32" names="/model/backbone/stem/stem4/act/Relu_output_0">
					<dim>1</dim>
					<dim>16</dim>
					<dim>160</dim>
					<dim>160</dim>
				</port>
			</output>
		</layer>
		<layer id="105" name="/model/backbone/stem/stem4/lab/Mul" type="Multiply" version="opset1">
			<data auto_broadcast="numpy" />
			<input>
				<port id="0" precision="FP32">
					<dim>1</dim>
					<dim>1</dim>
					<dim>1</dim>
					<dim>1</dim>
				</port>
				<port id="1" precision="FP32">
					<dim>1</dim>
					<dim>16</dim>
					<dim>160</dim>
					<dim>160</dim>
				</port>
			</input>
			<output>
				<port id="2" precision="FP32" names="/model/backbone/stem/stem4/lab/Mul_output_0">
					<dim>1</dim>
					<dim>16</dim>
					<dim>160</dim>
					<dim>160</dim>
				</port>
			</output>
		</layer>
		<layer id="106" name="Constant_13565" type="Const" version="opset1">
			<data element_type="f32" shape="1, 1, 1, 1" offset="10968" size="4" />
			<output>
				<port id="0" precision="FP32">
					<dim>1</dim>
					<dim>1</dim>
					<dim>1</dim>
					<dim>1</dim>
				</port>
			</output>
		</layer>
		<layer id="107" name="/model/backbone/stem/stem4/lab/Add" type="Add" version="opset1">
			<data auto_broadcast="numpy" />
			<input>
				<port id="0" precision="FP32">
					<dim>1</dim>
					<dim>16</dim>
					<dim>160</dim>
					<dim>160</dim>
				</port>
				<port id="1" precision="FP32">
					<dim>1</dim>
					<dim>1</dim>
					<dim>1</dim>
					<dim>1</dim>
				</port>
			</input>
			<output>
				<port id="2" precision="FP32" names="/model/backbone/stem/stem4/lab/Add_output_0">
					<dim>1</dim>
					<dim>16</dim>
					<dim>160</dim>
					<dim>160</dim>
				</port>
			</output>
		</layer>
		<layer id="108" name="/model/backbone/stem/stem4/lab/Add/fq_output_0/input_low" type="Const" version="opset1">
			<data element_type="f32" shape="" offset="10972" size="4" />
			<output>
				<port id="0" precision="FP32" />
			</output>
		</layer>
		<layer id="109" name="/model/backbone/stem/stem4/lab/Add/fq_output_0/input_high" type="Const" version="opset1">
			<data element_type="f32" shape="" offset="10976" size="4" />
			<output>
				<port id="0" precision="FP32" />
			</output>
		</layer>
		<layer id="110" name="/model/backbone/stem/stem4/lab/Add/fq_output_0/output_low" type="Const" version="opset1">
			<data element_type="f32" shape="" offset="10972" size="4" />
			<output>
				<port id="0" precision="FP32" />
			</output>
		</layer>
		<layer id="111" name="/model/backbone/stem/stem4/lab/Add/fq_output_0/output_high" type="Const" version="opset1">
			<data element_type="f32" shape="" offset="10976" size="4" />
			<output>
				<port id="0" precision="FP32" />
			</output>
		</layer>
		<layer id="112" name="/model/backbone/stem/stem4/lab/Add/fq_output_0" type="FakeQuantize" version="opset1">
			<data levels="256" auto_broadcast="numpy" />
			<input>
				<port id="0" precision="FP32">
					<dim>1</dim>
					<dim>16</dim>
					<dim>160</dim>
					<dim>160</dim>
				</port>
				<port id="1" precision="FP32" />
				<port id="2" precision="FP32" />
				<port id="3" precision="FP32" />
				<port id="4" precision="FP32" />
			</input>
			<output>
				<port id="5" precision="FP32">
					<dim>1</dim>
					<dim>16</dim>
					<dim>160</dim>
					<dim>160</dim>
				</port>
			</output>
		</layer>
		<layer id="113" name="Constant_13566" type="Const" version="opset1">
			<data element_type="f32" shape="1, 1, 1, 1" offset="10980" size="4" />
			<output>
				<port id="0" precision="FP32">
					<dim>1</dim>
					<dim>1</dim>
					<dim>1</dim>
					<dim>1</dim>
				</port>
			</output>
		</layer>
		<layer id="114" name="Constant_556000" type="Const" version="opset1">
			<data element_type="i8" shape="16, 16, 3, 3" offset="10984" size="2304" />
			<output>
				<port id="0" precision="I8">
					<dim>16</dim>
					<dim>16</dim>
					<dim>3</dim>
					<dim>3</dim>
				</port>
			</output>
		</layer>
		<layer id="115" name="Convert_556001" type="Convert" version="opset1">
			<data destination_type="f32" />
			<input>
				<port id="0" precision="I8">
					<dim>16</dim>
					<dim>16</dim>
					<dim>3</dim>
					<dim>3</dim>
				</port>
			</input>
			<output>
				<port id="1" precision="FP32">
					<dim>16</dim>
					<dim>16</dim>
					<dim>3</dim>
					<dim>3</dim>
				</port>
			</output>
		</layer>
		<layer id="116" name="Constant_556002" type="Const" version="opset1">
			<data element_type="f32" shape="16, 1, 1, 1" offset="13288" size="64" />
			<output>
				<port id="0" precision="FP32">
					<dim>16</dim>
					<dim>1</dim>
					<dim>1</dim>
					<dim>1</dim>
				</port>
			</output>
		</layer>
		<layer id="117" name="/model/backbone/stages.0/blocks/blocks.0/layers.0/conv/Conv/WithoutBiases/fq_weights_1" type="Multiply" version="opset1">
			<data auto_broadcast="numpy" />
			<input>
				<port id="0" precision="FP32">
					<dim>16</dim>
					<dim>16</dim>
					<dim>3</dim>
					<dim>3</dim>
				</port>
				<port id="1" precision="FP32">
					<dim>16</dim>
					<dim>1</dim>
					<dim>1</dim>
					<dim>1</dim>
				</port>
			</input>
			<output>
				<port id="2" precision="FP32">
					<dim>16</dim>
					<dim>16</dim>
					<dim>3</dim>
					<dim>3</dim>
				</port>
			</output>
		</layer>
		<layer id="118" name="/model/backbone/stages.0/blocks/blocks.0/layers.0/conv/Conv/WithoutBiases" type="Convolution" version="opset1">
			<data strides="1, 1" dilations="1, 1" pads_begin="1, 1" pads_end="1, 1" auto_pad="explicit" />
			<input>
				<port id="0" precision="FP32">
					<dim>1</dim>
					<dim>16</dim>
					<dim>160</dim>
					<dim>160</dim>
				</port>
				<port id="1" precision="FP32">
					<dim>16</dim>
					<dim>16</dim>
					<dim>3</dim>
					<dim>3</dim>
				</port>
			</input>
			<output>
				<port id="2" precision="FP32">
					<dim>1</dim>
					<dim>16</dim>
					<dim>160</dim>
					<dim>160</dim>
				</port>
			</output>
		</layer>
		<layer id="119" name="Reshape_498" type="Const" version="opset1">
			<data element_type="f32" shape="1, 16, 1, 1" offset="13352" size="64" />
			<output>
				<port id="0" precision="FP32">
					<dim>1</dim>
					<dim>16</dim>
					<dim>1</dim>
					<dim>1</dim>
				</port>
			</output>
		</layer>
		<layer id="120" name="/model/backbone/stages.0/blocks/blocks.0/layers.0/conv/Conv" type="Add" version="opset1">
			<data auto_broadcast="numpy" />
			<input>
				<port id="0" precision="FP32">
					<dim>1</dim>
					<dim>16</dim>
					<dim>160</dim>
					<dim>160</dim>
				</port>
				<port id="1" precision="FP32">
					<dim>1</dim>
					<dim>16</dim>
					<dim>1</dim>
					<dim>1</dim>
				</port>
			</input>
			<output>
				<port id="2" precision="FP32" names="/model/backbone/stages.0/blocks/blocks.0/layers.0/conv/Conv_output_0">
					<dim>1</dim>
					<dim>16</dim>
					<dim>160</dim>
					<dim>160</dim>
				</port>
			</output>
		</layer>
		<layer id="121" name="/model/backbone/stages.0/blocks/blocks.0/layers.0/act/Relu" type="ReLU" version="opset1">
			<input>
				<port id="0" precision="FP32">
					<dim>1</dim>
					<dim>16</dim>
					<dim>160</dim>
					<dim>160</dim>
				</port>
			</input>
			<output>
				<port id="1" precision="FP32" names="/model/backbone/stages.0/blocks/blocks.0/layers.0/act/Relu_output_0">
					<dim>1</dim>
					<dim>16</dim>
					<dim>160</dim>
					<dim>160</dim>
				</port>
			</output>
		</layer>
		<layer id="122" name="/model/backbone/stages.0/blocks/blocks.0/layers.0/lab/Mul" type="Multiply" version="opset1">
			<data auto_broadcast="numpy" />
			<input>
				<port id="0" precision="FP32">
					<dim>1</dim>
					<dim>1</dim>
					<dim>1</dim>
					<dim>1</dim>
				</port>
				<port id="1" precision="FP32">
					<dim>1</dim>
					<dim>16</dim>
					<dim>160</dim>
					<dim>160</dim>
				</port>
			</input>
			<output>
				<port id="2" precision="FP32" names="/model/backbone/stages.0/blocks/blocks.0/layers.0/lab/Mul_output_0">
					<dim>1</dim>
					<dim>16</dim>
					<dim>160</dim>
					<dim>160</dim>
				</port>
			</output>
		</layer>
		<layer id="123" name="Constant_13567" type="Const" version="opset1">
			<data element_type="f32" shape="1, 1, 1, 1" offset="13416" size="4" />
			<output>
				<port id="0" precision="FP32">
					<dim>1</dim>
					<dim>1</dim>
					<dim>1</dim>
					<dim>1</dim>
				</port>
			</output>
		</layer>
		<layer id="124" name="/model/backbone/stages.0/blocks/blocks.0/layers.0/lab/Add" type="Add" version="opset1">
			<data auto_broadcast="numpy" />
			<input>
				<port id="0" precision="FP32">
					<dim>1</dim>
					<dim>16</dim>
					<dim>160</dim>
					<dim>160</dim>
				</port>
				<port id="1" precision="FP32">
					<dim>1</dim>
					<dim>1</dim>
					<dim>1</dim>
					<dim>1</dim>
				</port>
			</input>
			<output>
				<port id="2" precision="FP32" names="/model/backbone/stages.0/blocks/blocks.0/layers.0/lab/Add_output_0">
					<dim>1</dim>
					<dim>16</dim>
					<dim>160</dim>
					<dim>160</dim>
				</port>
			</output>
		</layer>
		<layer id="125" name="/model/backbone/stages.0/blocks/blocks.0/layers.0/lab/Add/fq_output_0/input_low" type="Const" version="opset1">
			<data element_type="f32" shape="" offset="10972" size="4" />
			<output>
				<port id="0" precision="FP32" />
			</output>
		</layer>
		<layer id="126" name="/model/backbone/stages.0/blocks/blocks.0/layers.0/lab/Add/fq_output_0/input_high" type="Const" version="opset1">
			<data element_type="f32" shape="" offset="10976" size="4" />
			<output>
				<port id="0" precision="FP32" />
			</output>
		</layer>
		<layer id="127" name="/model/backbone/stages.0/blocks/blocks.0/layers.0/lab/Add/fq_output_0/output_low" type="Const" version="opset1">
			<data element_type="f32" shape="" offset="10972" size="4" />
			<output>
				<port id="0" precision="FP32" />
			</output>
		</layer>
		<layer id="128" name="/model/backbone/stages.0/blocks/blocks.0/layers.0/lab/Add/fq_output_0/output_high" type="Const" version="opset1">
			<data element_type="f32" shape="" offset="10976" size="4" />
			<output>
				<port id="0" precision="FP32" />
			</output>
		</layer>
		<layer id="129" name="/model/backbone/stages.0/blocks/blocks.0/layers.0/lab/Add/fq_output_0" type="FakeQuantize" version="opset1">
			<data levels="256" auto_broadcast="numpy" />
			<input>
				<port id="0" precision="FP32">
					<dim>1</dim>
					<dim>16</dim>
					<dim>160</dim>
					<dim>160</dim>
				</port>
				<port id="1" precision="FP32" />
				<port id="2" precision="FP32" />
				<port id="3" precision="FP32" />
				<port id="4" precision="FP32" />
			</input>
			<output>
				<port id="5" precision="FP32">
					<dim>1</dim>
					<dim>16</dim>
					<dim>160</dim>
					<dim>160</dim>
				</port>
			</output>
		</layer>
		<layer id="130" name="Constant_13568" type="Const" version="opset1">
			<data element_type="f32" shape="1, 1, 1, 1" offset="13420" size="4" />
			<output>
				<port id="0" precision="FP32">
					<dim>1</dim>
					<dim>1</dim>
					<dim>1</dim>
					<dim>1</dim>
				</port>
			</output>
		</layer>
		<layer id="131" name="Constant_556004" type="Const" version="opset1">
			<data element_type="i8" shape="16, 16, 3, 3" offset="13424" size="2304" />
			<output>
				<port id="0" precision="I8">
					<dim>16</dim>
					<dim>16</dim>
					<dim>3</dim>
					<dim>3</dim>
				</port>
			</output>
		</layer>
		<layer id="132" name="Convert_556005" type="Convert" version="opset1">
			<data destination_type="f32" />
			<input>
				<port id="0" precision="I8">
					<dim>16</dim>
					<dim>16</dim>
					<dim>3</dim>
					<dim>3</dim>
				</port>
			</input>
			<output>
				<port id="1" precision="FP32">
					<dim>16</dim>
					<dim>16</dim>
					<dim>3</dim>
					<dim>3</dim>
				</port>
			</output>
		</layer>
		<layer id="133" name="Constant_556006" type="Const" version="opset1">
			<data element_type="f32" shape="16, 1, 1, 1" offset="15728" size="64" />
			<output>
				<port id="0" precision="FP32">
					<dim>16</dim>
					<dim>1</dim>
					<dim>1</dim>
					<dim>1</dim>
				</port>
			</output>
		</layer>
		<layer id="134" name="/model/backbone/stages.0/blocks/blocks.0/layers.1/conv/Conv/WithoutBiases/fq_weights_1" type="Multiply" version="opset1">
			<data auto_broadcast="numpy" />
			<input>
				<port id="0" precision="FP32">
					<dim>16</dim>
					<dim>16</dim>
					<dim>3</dim>
					<dim>3</dim>
				</port>
				<port id="1" precision="FP32">
					<dim>16</dim>
					<dim>1</dim>
					<dim>1</dim>
					<dim>1</dim>
				</port>
			</input>
			<output>
				<port id="2" precision="FP32">
					<dim>16</dim>
					<dim>16</dim>
					<dim>3</dim>
					<dim>3</dim>
				</port>
			</output>
		</layer>
		<layer id="135" name="/model/backbone/stages.0/blocks/blocks.0/layers.1/conv/Conv/WithoutBiases" type="Convolution" version="opset1">
			<data strides="1, 1" dilations="1, 1" pads_begin="1, 1" pads_end="1, 1" auto_pad="explicit" />
			<input>
				<port id="0" precision="FP32">
					<dim>1</dim>
					<dim>16</dim>
					<dim>160</dim>
					<dim>160</dim>
				</port>
				<port id="1" precision="FP32">
					<dim>16</dim>
					<dim>16</dim>
					<dim>3</dim>
					<dim>3</dim>
				</port>
			</input>
			<output>
				<port id="2" precision="FP32">
					<dim>1</dim>
					<dim>16</dim>
					<dim>160</dim>
					<dim>160</dim>
				</port>
			</output>
		</layer>
		<layer id="136" name="Reshape_514" type="Const" version="opset1">
			<data element_type="f32" shape="1, 16, 1, 1" offset="15792" size="64" />
			<output>
				<port id="0" precision="FP32">
					<dim>1</dim>
					<dim>16</dim>
					<dim>1</dim>
					<dim>1</dim>
				</port>
			</output>
		</layer>
		<layer id="137" name="/model/backbone/stages.0/blocks/blocks.0/layers.1/conv/Conv" type="Add" version="opset1">
			<data auto_broadcast="numpy" />
			<input>
				<port id="0" precision="FP32">
					<dim>1</dim>
					<dim>16</dim>
					<dim>160</dim>
					<dim>160</dim>
				</port>
				<port id="1" precision="FP32">
					<dim>1</dim>
					<dim>16</dim>
					<dim>1</dim>
					<dim>1</dim>
				</port>
			</input>
			<output>
				<port id="2" precision="FP32" names="/model/backbone/stages.0/blocks/blocks.0/layers.1/conv/Conv_output_0">
					<dim>1</dim>
					<dim>16</dim>
					<dim>160</dim>
					<dim>160</dim>
				</port>
			</output>
		</layer>
		<layer id="138" name="/model/backbone/stages.0/blocks/blocks.0/layers.1/act/Relu" type="ReLU" version="opset1">
			<input>
				<port id="0" precision="FP32">
					<dim>1</dim>
					<dim>16</dim>
					<dim>160</dim>
					<dim>160</dim>
				</port>
			</input>
			<output>
				<port id="1" precision="FP32" names="/model/backbone/stages.0/blocks/blocks.0/layers.1/act/Relu_output_0">
					<dim>1</dim>
					<dim>16</dim>
					<dim>160</dim>
					<dim>160</dim>
				</port>
			</output>
		</layer>
		<layer id="139" name="/model/backbone/stages.0/blocks/blocks.0/layers.1/lab/Mul" type="Multiply" version="opset1">
			<data auto_broadcast="numpy" />
			<input>
				<port id="0" precision="FP32">
					<dim>1</dim>
					<dim>1</dim>
					<dim>1</dim>
					<dim>1</dim>
				</port>
				<port id="1" precision="FP32">
					<dim>1</dim>
					<dim>16</dim>
					<dim>160</dim>
					<dim>160</dim>
				</port>
			</input>
			<output>
				<port id="2" precision="FP32" names="/model/backbone/stages.0/blocks/blocks.0/layers.1/lab/Mul_output_0">
					<dim>1</dim>
					<dim>16</dim>
					<dim>160</dim>
					<dim>160</dim>
				</port>
			</output>
		</layer>
		<layer id="140" name="Constant_13569" type="Const" version="opset1">
			<data element_type="f32" shape="1, 1, 1, 1" offset="15856" size="4" />
			<output>
				<port id="0" precision="FP32">
					<dim>1</dim>
					<dim>1</dim>
					<dim>1</dim>
					<dim>1</dim>
				</port>
			</output>
		</layer>
		<layer id="141" name="/model/backbone/stages.0/blocks/blocks.0/layers.1/lab/Add" type="Add" version="opset1">
			<data auto_broadcast="numpy" />
			<input>
				<port id="0" precision="FP32">
					<dim>1</dim>
					<dim>16</dim>
					<dim>160</dim>
					<dim>160</dim>
				</port>
				<port id="1" precision="FP32">
					<dim>1</dim>
					<dim>1</dim>
					<dim>1</dim>
					<dim>1</dim>
				</port>
			</input>
			<output>
				<port id="2" precision="FP32" names="/model/backbone/stages.0/blocks/blocks.0/layers.1/lab/Add_output_0">
					<dim>1</dim>
					<dim>16</dim>
					<dim>160</dim>
					<dim>160</dim>
				</port>
			</output>
		</layer>
		<layer id="142" name="/model/backbone/stages.0/blocks/blocks.0/layers.1/lab/Add/fq_output_0/input_low" type="Const" version="opset1">
			<data element_type="f32" shape="" offset="10972" size="4" />
			<output>
				<port id="0" precision="FP32" />
			</output>
		</layer>
		<layer id="143" name="/model/backbone/stages.0/blocks/blocks.0/layers.1/lab/Add/fq_output_0/input_high" type="Const" version="opset1">
			<data element_type="f32" shape="" offset="10976" size="4" />
			<output>
				<port id="0" precision="FP32" />
			</output>
		</layer>
		<layer id="144" name="/model/backbone/stages.0/blocks/blocks.0/layers.1/lab/Add/fq_output_0/output_low" type="Const" version="opset1">
			<data element_type="f32" shape="" offset="10972" size="4" />
			<output>
				<port id="0" precision="FP32" />
			</output>
		</layer>
		<layer id="145" name="/model/backbone/stages.0/blocks/blocks.0/layers.1/lab/Add/fq_output_0/output_high" type="Const" version="opset1">
			<data element_type="f32" shape="" offset="10976" size="4" />
			<output>
				<port id="0" precision="FP32" />
			</output>
		</layer>
		<layer id="146" name="/model/backbone/stages.0/blocks/blocks.0/layers.1/lab/Add/fq_output_0" type="FakeQuantize" version="opset1">
			<data levels="256" auto_broadcast="numpy" />
			<input>
				<port id="0" precision="FP32">
					<dim>1</dim>
					<dim>16</dim>
					<dim>160</dim>
					<dim>160</dim>
				</port>
				<port id="1" precision="FP32" />
				<port id="2" precision="FP32" />
				<port id="3" precision="FP32" />
				<port id="4" precision="FP32" />
			</input>
			<output>
				<port id="5" precision="FP32">
					<dim>1</dim>
					<dim>16</dim>
					<dim>160</dim>
					<dim>160</dim>
				</port>
			</output>
		</layer>
		<layer id="147" name="Constant_13570" type="Const" version="opset1">
			<data element_type="f32" shape="1, 1, 1, 1" offset="15860" size="4" />
			<output>
				<port id="0" precision="FP32">
					<dim>1</dim>
					<dim>1</dim>
					<dim>1</dim>
					<dim>1</dim>
				</port>
			</output>
		</layer>
		<layer id="148" name="Constant_556008" type="Const" version="opset1">
			<data element_type="i8" shape="16, 16, 3, 3" offset="15864" size="2304" />
			<output>
				<port id="0" precision="I8">
					<dim>16</dim>
					<dim>16</dim>
					<dim>3</dim>
					<dim>3</dim>
				</port>
			</output>
		</layer>
		<layer id="149" name="Convert_556009" type="Convert" version="opset1">
			<data destination_type="f32" />
			<input>
				<port id="0" precision="I8">
					<dim>16</dim>
					<dim>16</dim>
					<dim>3</dim>
					<dim>3</dim>
				</port>
			</input>
			<output>
				<port id="1" precision="FP32">
					<dim>16</dim>
					<dim>16</dim>
					<dim>3</dim>
					<dim>3</dim>
				</port>
			</output>
		</layer>
		<layer id="150" name="Constant_556010" type="Const" version="opset1">
			<data element_type="f32" shape="16, 1, 1, 1" offset="18168" size="64" />
			<output>
				<port id="0" precision="FP32">
					<dim>16</dim>
					<dim>1</dim>
					<dim>1</dim>
					<dim>1</dim>
				</port>
			</output>
		</layer>
		<layer id="151" name="/model/backbone/stages.0/blocks/blocks.0/layers.2/conv/Conv/WithoutBiases/fq_weights_1" type="Multiply" version="opset1">
			<data auto_broadcast="numpy" />
			<input>
				<port id="0" precision="FP32">
					<dim>16</dim>
					<dim>16</dim>
					<dim>3</dim>
					<dim>3</dim>
				</port>
				<port id="1" precision="FP32">
					<dim>16</dim>
					<dim>1</dim>
					<dim>1</dim>
					<dim>1</dim>
				</port>
			</input>
			<output>
				<port id="2" precision="FP32">
					<dim>16</dim>
					<dim>16</dim>
					<dim>3</dim>
					<dim>3</dim>
				</port>
			</output>
		</layer>
		<layer id="152" name="/model/backbone/stages.0/blocks/blocks.0/layers.2/conv/Conv/WithoutBiases" type="Convolution" version="opset1">
			<data strides="1, 1" dilations="1, 1" pads_begin="1, 1" pads_end="1, 1" auto_pad="explicit" />
			<input>
				<port id="0" precision="FP32">
					<dim>1</dim>
					<dim>16</dim>
					<dim>160</dim>
					<dim>160</dim>
				</port>
				<port id="1" precision="FP32">
					<dim>16</dim>
					<dim>16</dim>
					<dim>3</dim>
					<dim>3</dim>
				</port>
			</input>
			<output>
				<port id="2" precision="FP32">
					<dim>1</dim>
					<dim>16</dim>
					<dim>160</dim>
					<dim>160</dim>
				</port>
			</output>
		</layer>
		<layer id="153" name="Reshape_530" type="Const" version="opset1">
			<data element_type="f32" shape="1, 16, 1, 1" offset="18232" size="64" />
			<output>
				<port id="0" precision="FP32">
					<dim>1</dim>
					<dim>16</dim>
					<dim>1</dim>
					<dim>1</dim>
				</port>
			</output>
		</layer>
		<layer id="154" name="/model/backbone/stages.0/blocks/blocks.0/layers.2/conv/Conv" type="Add" version="opset1">
			<data auto_broadcast="numpy" />
			<input>
				<port id="0" precision="FP32">
					<dim>1</dim>
					<dim>16</dim>
					<dim>160</dim>
					<dim>160</dim>
				</port>
				<port id="1" precision="FP32">
					<dim>1</dim>
					<dim>16</dim>
					<dim>1</dim>
					<dim>1</dim>
				</port>
			</input>
			<output>
				<port id="2" precision="FP32" names="/model/backbone/stages.0/blocks/blocks.0/layers.2/conv/Conv_output_0">
					<dim>1</dim>
					<dim>16</dim>
					<dim>160</dim>
					<dim>160</dim>
				</port>
			</output>
		</layer>
		<layer id="155" name="/model/backbone/stages.0/blocks/blocks.0/layers.2/act/Relu" type="ReLU" version="opset1">
			<input>
				<port id="0" precision="FP32">
					<dim>1</dim>
					<dim>16</dim>
					<dim>160</dim>
					<dim>160</dim>
				</port>
			</input>
			<output>
				<port id="1" precision="FP32" names="/model/backbone/stages.0/blocks/blocks.0/layers.2/act/Relu_output_0">
					<dim>1</dim>
					<dim>16</dim>
					<dim>160</dim>
					<dim>160</dim>
				</port>
			</output>
		</layer>
		<layer id="156" name="/model/backbone/stages.0/blocks/blocks.0/layers.2/lab/Mul" type="Multiply" version="opset1">
			<data auto_broadcast="numpy" />
			<input>
				<port id="0" precision="FP32">
					<dim>1</dim>
					<dim>1</dim>
					<dim>1</dim>
					<dim>1</dim>
				</port>
				<port id="1" precision="FP32">
					<dim>1</dim>
					<dim>16</dim>
					<dim>160</dim>
					<dim>160</dim>
				</port>
			</input>
			<output>
				<port id="2" precision="FP32" names="/model/backbone/stages.0/blocks/blocks.0/layers.2/lab/Mul_output_0">
					<dim>1</dim>
					<dim>16</dim>
					<dim>160</dim>
					<dim>160</dim>
				</port>
			</output>
		</layer>
		<layer id="157" name="Constant_13571" type="Const" version="opset1">
			<data element_type="f32" shape="1, 1, 1, 1" offset="18296" size="4" />
			<output>
				<port id="0" precision="FP32">
					<dim>1</dim>
					<dim>1</dim>
					<dim>1</dim>
					<dim>1</dim>
				</port>
			</output>
		</layer>
		<layer id="158" name="/model/backbone/stages.0/blocks/blocks.0/layers.2/lab/Add" type="Add" version="opset1">
			<data auto_broadcast="numpy" />
			<input>
				<port id="0" precision="FP32">
					<dim>1</dim>
					<dim>16</dim>
					<dim>160</dim>
					<dim>160</dim>
				</port>
				<port id="1" precision="FP32">
					<dim>1</dim>
					<dim>1</dim>
					<dim>1</dim>
					<dim>1</dim>
				</port>
			</input>
			<output>
				<port id="2" precision="FP32" names="/model/backbone/stages.0/blocks/blocks.0/layers.2/lab/Add_output_0">
					<dim>1</dim>
					<dim>16</dim>
					<dim>160</dim>
					<dim>160</dim>
				</port>
			</output>
		</layer>
		<layer id="159" name="/model/backbone/stages.0/blocks/blocks.0/layers.2/lab/Add/fq_output_0/input_low" type="Const" version="opset1">
			<data element_type="f32" shape="" offset="10972" size="4" />
			<output>
				<port id="0" precision="FP32" />
			</output>
		</layer>
		<layer id="160" name="/model/backbone/stages.0/blocks/blocks.0/layers.2/lab/Add/fq_output_0/input_high" type="Const" version="opset1">
			<data element_type="f32" shape="" offset="10976" size="4" />
			<output>
				<port id="0" precision="FP32" />
			</output>
		</layer>
		<layer id="161" name="/model/backbone/stages.0/blocks/blocks.0/layers.2/lab/Add/fq_output_0/output_low" type="Const" version="opset1">
			<data element_type="f32" shape="" offset="10972" size="4" />
			<output>
				<port id="0" precision="FP32" />
			</output>
		</layer>
		<layer id="162" name="/model/backbone/stages.0/blocks/blocks.0/layers.2/lab/Add/fq_output_0/output_high" type="Const" version="opset1">
			<data element_type="f32" shape="" offset="10976" size="4" />
			<output>
				<port id="0" precision="FP32" />
			</output>
		</layer>
		<layer id="163" name="/model/backbone/stages.0/blocks/blocks.0/layers.2/lab/Add/fq_output_0" type="FakeQuantize" version="opset1">
			<data levels="256" auto_broadcast="numpy" />
			<input>
				<port id="0" precision="FP32">
					<dim>1</dim>
					<dim>16</dim>
					<dim>160</dim>
					<dim>160</dim>
				</port>
				<port id="1" precision="FP32" />
				<port id="2" precision="FP32" />
				<port id="3" precision="FP32" />
				<port id="4" precision="FP32" />
			</input>
			<output>
				<port id="5" precision="FP32">
					<dim>1</dim>
					<dim>16</dim>
					<dim>160</dim>
					<dim>160</dim>
				</port>
			</output>
		</layer>
		<layer id="164" name="/model/backbone/stages.0/blocks/blocks.0/Concat" type="Concat" version="opset1">
			<data axis="1" />
			<input>
				<port id="0" precision="FP32">
					<dim>1</dim>
					<dim>16</dim>
					<dim>160</dim>
					<dim>160</dim>
				</port>
				<port id="1" precision="FP32">
					<dim>1</dim>
					<dim>16</dim>
					<dim>160</dim>
					<dim>160</dim>
				</port>
				<port id="2" precision="FP32">
					<dim>1</dim>
					<dim>16</dim>
					<dim>160</dim>
					<dim>160</dim>
				</port>
				<port id="3" precision="FP32">
					<dim>1</dim>
					<dim>16</dim>
					<dim>160</dim>
					<dim>160</dim>
				</port>
			</input>
			<output>
				<port id="4" precision="FP32" names="/model/backbone/stages.0/blocks/blocks.0/Concat_output_0">
					<dim>1</dim>
					<dim>64</dim>
					<dim>160</dim>
					<dim>160</dim>
				</port>
			</output>
		</layer>
		<layer id="165" name="Constant_556012" type="Const" version="opset1">
			<data element_type="i8" shape="32, 64, 1, 1" offset="18300" size="2048" />
			<output>
				<port id="0" precision="I8">
					<dim>32</dim>
					<dim>64</dim>
					<dim>1</dim>
					<dim>1</dim>
				</port>
			</output>
		</layer>
		<layer id="166" name="Convert_556013" type="Convert" version="opset1">
			<data destination_type="f32" />
			<input>
				<port id="0" precision="I8">
					<dim>32</dim>
					<dim>64</dim>
					<dim>1</dim>
					<dim>1</dim>
				</port>
			</input>
			<output>
				<port id="1" precision="FP32">
					<dim>32</dim>
					<dim>64</dim>
					<dim>1</dim>
					<dim>1</dim>
				</port>
			</output>
		</layer>
		<layer id="167" name="Constant_556014" type="Const" version="opset1">
			<data element_type="f32" shape="32, 1, 1, 1" offset="20348" size="128" />
			<output>
				<port id="0" precision="FP32">
					<dim>32</dim>
					<dim>1</dim>
					<dim>1</dim>
					<dim>1</dim>
				</port>
			</output>
		</layer>
		<layer id="168" name="/model/backbone/stages.0/blocks/blocks.0/aggregation/aggregation.0/conv/Conv/WithoutBiases/fq_weights_1" type="Multiply" version="opset1">
			<data auto_broadcast="numpy" />
			<input>
				<port id="0" precision="FP32">
					<dim>32</dim>
					<dim>64</dim>
					<dim>1</dim>
					<dim>1</dim>
				</port>
				<port id="1" precision="FP32">
					<dim>32</dim>
					<dim>1</dim>
					<dim>1</dim>
					<dim>1</dim>
				</port>
			</input>
			<output>
				<port id="2" precision="FP32">
					<dim>32</dim>
					<dim>64</dim>
					<dim>1</dim>
					<dim>1</dim>
				</port>
			</output>
		</layer>
		<layer id="169" name="/model/backbone/stages.0/blocks/blocks.0/aggregation/aggregation.0/conv/Conv/WithoutBiases" type="Convolution" version="opset1">
			<data strides="1, 1" dilations="1, 1" pads_begin="0, 0" pads_end="0, 0" auto_pad="explicit" />
			<input>
				<port id="0" precision="FP32">
					<dim>1</dim>
					<dim>64</dim>
					<dim>160</dim>
					<dim>160</dim>
				</port>
				<port id="1" precision="FP32">
					<dim>32</dim>
					<dim>64</dim>
					<dim>1</dim>
					<dim>1</dim>
				</port>
			</input>
			<output>
				<port id="2" precision="FP32">
					<dim>1</dim>
					<dim>32</dim>
					<dim>160</dim>
					<dim>160</dim>
				</port>
			</output>
		</layer>
		<layer id="170" name="Reshape_547" type="Const" version="opset1">
			<data element_type="f32" shape="1, 32, 1, 1" offset="20476" size="128" />
			<output>
				<port id="0" precision="FP32">
					<dim>1</dim>
					<dim>32</dim>
					<dim>1</dim>
					<dim>1</dim>
				</port>
			</output>
		</layer>
		<layer id="171" name="/model/backbone/stages.0/blocks/blocks.0/aggregation/aggregation.0/conv/Conv" type="Add" version="opset1">
			<data auto_broadcast="numpy" />
			<input>
				<port id="0" precision="FP32">
					<dim>1</dim>
					<dim>32</dim>
					<dim>160</dim>
					<dim>160</dim>
				</port>
				<port id="1" precision="FP32">
					<dim>1</dim>
					<dim>32</dim>
					<dim>1</dim>
					<dim>1</dim>
				</port>
			</input>
			<output>
				<port id="2" precision="FP32" names="/model/backbone/stages.0/blocks/blocks.0/aggregation/aggregation.0/conv/Conv_output_0">
					<dim>1</dim>
					<dim>32</dim>
					<dim>160</dim>
					<dim>160</dim>
				</port>
			</output>
		</layer>
		<layer id="172" name="/model/backbone/stages.0/blocks/blocks.0/aggregation/aggregation.0/act/Relu" type="ReLU" version="opset1">
			<input>
				<port id="0" precision="FP32">
					<dim>1</dim>
					<dim>32</dim>
					<dim>160</dim>
					<dim>160</dim>
				</port>
			</input>
			<output>
				<port id="1" precision="FP32" names="/model/backbone/stages.0/blocks/blocks.0/aggregation/aggregation.0/act/Relu_output_0">
					<dim>1</dim>
					<dim>32</dim>
					<dim>160</dim>
					<dim>160</dim>
				</port>
			</output>
		</layer>
		<layer id="173" name="/model/backbone/stages.0/blocks/blocks.0/aggregation/aggregation.0/lab/Mul" type="Multiply" version="opset1">
			<data auto_broadcast="numpy" />
			<input>
				<port id="0" precision="FP32">
					<dim>1</dim>
					<dim>1</dim>
					<dim>1</dim>
					<dim>1</dim>
				</port>
				<port id="1" precision="FP32">
					<dim>1</dim>
					<dim>32</dim>
					<dim>160</dim>
					<dim>160</dim>
				</port>
			</input>
			<output>
				<port id="2" precision="FP32" names="/model/backbone/stages.0/blocks/blocks.0/aggregation/aggregation.0/lab/Mul_output_0">
					<dim>1</dim>
					<dim>32</dim>
					<dim>160</dim>
					<dim>160</dim>
				</port>
			</output>
		</layer>
		<layer id="174" name="Constant_13573" type="Const" version="opset1">
			<data element_type="f32" shape="1, 1, 1, 1" offset="20604" size="4" />
			<output>
				<port id="0" precision="FP32">
					<dim>1</dim>
					<dim>1</dim>
					<dim>1</dim>
					<dim>1</dim>
				</port>
			</output>
		</layer>
		<layer id="175" name="/model/backbone/stages.0/blocks/blocks.0/aggregation/aggregation.0/lab/Add" type="Add" version="opset1">
			<data auto_broadcast="numpy" />
			<input>
				<port id="0" precision="FP32">
					<dim>1</dim>
					<dim>32</dim>
					<dim>160</dim>
					<dim>160</dim>
				</port>
				<port id="1" precision="FP32">
					<dim>1</dim>
					<dim>1</dim>
					<dim>1</dim>
					<dim>1</dim>
				</port>
			</input>
			<output>
				<port id="2" precision="FP32" names="/model/backbone/stages.0/blocks/blocks.0/aggregation/aggregation.0/lab/Add_output_0">
					<dim>1</dim>
					<dim>32</dim>
					<dim>160</dim>
					<dim>160</dim>
				</port>
			</output>
		</layer>
		<layer id="176" name="/model/backbone/stages.0/blocks/blocks.0/aggregation/aggregation.0/lab/Add/fq_output_0/input_low" type="Const" version="opset1">
			<data element_type="f32" shape="" offset="3956" size="4" />
			<output>
				<port id="0" precision="FP32" />
			</output>
		</layer>
		<layer id="177" name="/model/backbone/stages.0/blocks/blocks.0/aggregation/aggregation.0/lab/Add/fq_output_0/input_high" type="Const" version="opset1">
			<data element_type="f32" shape="" offset="20608" size="4" />
			<output>
				<port id="0" precision="FP32" />
			</output>
		</layer>
		<layer id="178" name="/model/backbone/stages.0/blocks/blocks.0/aggregation/aggregation.0/lab/Add/fq_output_0/output_low" type="Const" version="opset1">
			<data element_type="f32" shape="" offset="3956" size="4" />
			<output>
				<port id="0" precision="FP32" />
			</output>
		</layer>
		<layer id="179" name="/model/backbone/stages.0/blocks/blocks.0/aggregation/aggregation.0/lab/Add/fq_output_0/output_high" type="Const" version="opset1">
			<data element_type="f32" shape="" offset="20608" size="4" />
			<output>
				<port id="0" precision="FP32" />
			</output>
		</layer>
		<layer id="180" name="/model/backbone/stages.0/blocks/blocks.0/aggregation/aggregation.0/lab/Add/fq_output_0" type="FakeQuantize" version="opset1">
			<data levels="256" auto_broadcast="numpy" />
			<input>
				<port id="0" precision="FP32">
					<dim>1</dim>
					<dim>32</dim>
					<dim>160</dim>
					<dim>160</dim>
				</port>
				<port id="1" precision="FP32" />
				<port id="2" precision="FP32" />
				<port id="3" precision="FP32" />
				<port id="4" precision="FP32" />
			</input>
			<output>
				<port id="5" precision="FP32">
					<dim>1</dim>
					<dim>32</dim>
					<dim>160</dim>
					<dim>160</dim>
				</port>
			</output>
		</layer>
		<layer id="181" name="Constant_556016" type="Const" version="opset1">
			<data element_type="i8" shape="64, 32, 1, 1" offset="20612" size="2048" />
			<output>
				<port id="0" precision="I8">
					<dim>64</dim>
					<dim>32</dim>
					<dim>1</dim>
					<dim>1</dim>
				</port>
			</output>
		</layer>
		<layer id="182" name="Convert_556017" type="Convert" version="opset1">
			<data destination_type="f32" />
			<input>
				<port id="0" precision="I8">
					<dim>64</dim>
					<dim>32</dim>
					<dim>1</dim>
					<dim>1</dim>
				</port>
			</input>
			<output>
				<port id="1" precision="FP32">
					<dim>64</dim>
					<dim>32</dim>
					<dim>1</dim>
					<dim>1</dim>
				</port>
			</output>
		</layer>
		<layer id="183" name="Constant_556018" type="Const" version="opset1">
			<data element_type="f32" shape="64, 1, 1, 1" offset="22660" size="256" />
			<output>
				<port id="0" precision="FP32">
					<dim>64</dim>
					<dim>1</dim>
					<dim>1</dim>
					<dim>1</dim>
				</port>
			</output>
		</layer>
		<layer id="184" name="/model/backbone/stages.0/blocks/blocks.0/aggregation/aggregation.1/conv/Conv/WithoutBiases/fq_weights_1" type="Multiply" version="opset1">
			<data auto_broadcast="numpy" />
			<input>
				<port id="0" precision="FP32">
					<dim>64</dim>
					<dim>32</dim>
					<dim>1</dim>
					<dim>1</dim>
				</port>
				<port id="1" precision="FP32">
					<dim>64</dim>
					<dim>1</dim>
					<dim>1</dim>
					<dim>1</dim>
				</port>
			</input>
			<output>
				<port id="2" precision="FP32">
					<dim>64</dim>
					<dim>32</dim>
					<dim>1</dim>
					<dim>1</dim>
				</port>
			</output>
		</layer>
		<layer id="185" name="/model/backbone/stages.0/blocks/blocks.0/aggregation/aggregation.1/conv/Conv/WithoutBiases" type="Convolution" version="opset1">
			<data strides="1, 1" dilations="1, 1" pads_begin="0, 0" pads_end="0, 0" auto_pad="explicit" />
			<input>
				<port id="0" precision="FP32">
					<dim>1</dim>
					<dim>32</dim>
					<dim>160</dim>
					<dim>160</dim>
				</port>
				<port id="1" precision="FP32">
					<dim>64</dim>
					<dim>32</dim>
					<dim>1</dim>
					<dim>1</dim>
				</port>
			</input>
			<output>
				<port id="2" precision="FP32">
					<dim>1</dim>
					<dim>64</dim>
					<dim>160</dim>
					<dim>160</dim>
				</port>
			</output>
		</layer>
		<layer id="186" name="Reshape_563" type="Const" version="opset1">
			<data element_type="f32" shape="1, 64, 1, 1" offset="22916" size="256" />
			<output>
				<port id="0" precision="FP32">
					<dim>1</dim>
					<dim>64</dim>
					<dim>1</dim>
					<dim>1</dim>
				</port>
			</output>
		</layer>
		<layer id="187" name="/model/backbone/stages.0/blocks/blocks.0/aggregation/aggregation.1/conv/Conv" type="Add" version="opset1">
			<data auto_broadcast="numpy" />
			<input>
				<port id="0" precision="FP32">
					<dim>1</dim>
					<dim>64</dim>
					<dim>160</dim>
					<dim>160</dim>
				</port>
				<port id="1" precision="FP32">
					<dim>1</dim>
					<dim>64</dim>
					<dim>1</dim>
					<dim>1</dim>
				</port>
			</input>
			<output>
				<port id="2" precision="FP32" names="/model/backbone/stages.0/blocks/blocks.0/aggregation/aggregation.1/conv/Conv_output_0">
					<dim>1</dim>
					<dim>64</dim>
					<dim>160</dim>
					<dim>160</dim>
				</port>
			</output>
		</layer>
		<layer id="188" name="/model/backbone/stages.0/blocks/blocks.0/aggregation/aggregation.1/act/Relu" type="ReLU" version="opset1">
			<input>
				<port id="0" precision="FP32">
					<dim>1</dim>
					<dim>64</dim>
					<dim>160</dim>
					<dim>160</dim>
				</port>
			</input>
			<output>
				<port id="1" precision="FP32" names="/model/backbone/stages.0/blocks/blocks.0/aggregation/aggregation.1/act/Relu_output_0">
					<dim>1</dim>
					<dim>64</dim>
					<dim>160</dim>
					<dim>160</dim>
				</port>
			</output>
		</layer>
		<layer id="189" name="/model/backbone/stages.0/blocks/blocks.0/aggregation/aggregation.1/lab/Mul" type="Multiply" version="opset1">
			<data auto_broadcast="numpy" />
			<input>
				<port id="0" precision="FP32">
					<dim>1</dim>
					<dim>1</dim>
					<dim>1</dim>
					<dim>1</dim>
				</port>
				<port id="1" precision="FP32">
					<dim>1</dim>
					<dim>64</dim>
					<dim>160</dim>
					<dim>160</dim>
				</port>
			</input>
			<output>
				<port id="2" precision="FP32" names="/model/backbone/stages.0/blocks/blocks.0/aggregation/aggregation.1/lab/Mul_output_0">
					<dim>1</dim>
					<dim>64</dim>
					<dim>160</dim>
					<dim>160</dim>
				</port>
			</output>
		</layer>
		<layer id="190" name="Constant_13575" type="Const" version="opset1">
			<data element_type="f32" shape="1, 1, 1, 1" offset="23172" size="4" />
			<output>
				<port id="0" precision="FP32">
					<dim>1</dim>
					<dim>1</dim>
					<dim>1</dim>
					<dim>1</dim>
				</port>
			</output>
		</layer>
		<layer id="191" name="/model/backbone/stages.0/blocks/blocks.0/aggregation/aggregation.1/lab/Add" type="Add" version="opset1">
			<data auto_broadcast="numpy" />
			<input>
				<port id="0" precision="FP32">
					<dim>1</dim>
					<dim>64</dim>
					<dim>160</dim>
					<dim>160</dim>
				</port>
				<port id="1" precision="FP32">
					<dim>1</dim>
					<dim>1</dim>
					<dim>1</dim>
					<dim>1</dim>
				</port>
			</input>
			<output>
				<port id="2" precision="FP32" names="/model/backbone/stages.0/blocks/blocks.0/aggregation/aggregation.1/lab/Add_output_0">
					<dim>1</dim>
					<dim>64</dim>
					<dim>160</dim>
					<dim>160</dim>
				</port>
			</output>
		</layer>
		<layer id="192" name="/model/backbone/stages.0/blocks/blocks.0/aggregation/aggregation.1/lab/Add/fq_output_0/input_low" type="Const" version="opset1">
			<data element_type="f32" shape="1, 64, 1, 1" offset="23176" size="256" />
			<output>
				<port id="0" precision="FP32">
					<dim>1</dim>
					<dim>64</dim>
					<dim>1</dim>
					<dim>1</dim>
				</port>
			</output>
		</layer>
		<layer id="193" name="/model/backbone/stages.0/blocks/blocks.0/aggregation/aggregation.1/lab/Add/fq_output_0/input_high" type="Const" version="opset1">
			<data element_type="f32" shape="1, 64, 1, 1" offset="23432" size="256" />
			<output>
				<port id="0" precision="FP32">
					<dim>1</dim>
					<dim>64</dim>
					<dim>1</dim>
					<dim>1</dim>
				</port>
			</output>
		</layer>
		<layer id="194" name="/model/backbone/stages.0/blocks/blocks.0/aggregation/aggregation.1/lab/Add/fq_output_0/output_low" type="Const" version="opset1">
			<data element_type="f32" shape="1, 64, 1, 1" offset="23176" size="256" />
			<output>
				<port id="0" precision="FP32">
					<dim>1</dim>
					<dim>64</dim>
					<dim>1</dim>
					<dim>1</dim>
				</port>
			</output>
		</layer>
		<layer id="195" name="/model/backbone/stages.0/blocks/blocks.0/aggregation/aggregation.1/lab/Add/fq_output_0/output_high" type="Const" version="opset1">
			<data element_type="f32" shape="1, 64, 1, 1" offset="23432" size="256" />
			<output>
				<port id="0" precision="FP32">
					<dim>1</dim>
					<dim>64</dim>
					<dim>1</dim>
					<dim>1</dim>
				</port>
			</output>
		</layer>
		<layer id="196" name="/model/backbone/stages.0/blocks/blocks.0/aggregation/aggregation.1/lab/Add/fq_output_0" type="FakeQuantize" version="opset1">
			<data levels="256" auto_broadcast="numpy" />
			<input>
				<port id="0" precision="FP32">
					<dim>1</dim>
					<dim>64</dim>
					<dim>160</dim>
					<dim>160</dim>
				</port>
				<port id="1" precision="FP32">
					<dim>1</dim>
					<dim>64</dim>
					<dim>1</dim>
					<dim>1</dim>
				</port>
				<port id="2" precision="FP32">
					<dim>1</dim>
					<dim>64</dim>
					<dim>1</dim>
					<dim>1</dim>
				</port>
				<port id="3" precision="FP32">
					<dim>1</dim>
					<dim>64</dim>
					<dim>1</dim>
					<dim>1</dim>
				</port>
				<port id="4" precision="FP32">
					<dim>1</dim>
					<dim>64</dim>
					<dim>1</dim>
					<dim>1</dim>
				</port>
			</input>
			<output>
				<port id="5" precision="FP32">
					<dim>1</dim>
					<dim>64</dim>
					<dim>160</dim>
					<dim>160</dim>
				</port>
			</output>
		</layer>
		<layer id="197" name="Constant_556020" type="Const" version="opset1">
			<data element_type="i8" shape="64, 1, 1, 3, 3" offset="23688" size="576" />
			<output>
				<port id="0" precision="I8">
					<dim>64</dim>
					<dim>1</dim>
					<dim>1</dim>
					<dim>3</dim>
					<dim>3</dim>
				</port>
			</output>
		</layer>
		<layer id="198" name="Convert_556021" type="Convert" version="opset1">
			<data destination_type="f32" />
			<input>
				<port id="0" precision="I8">
					<dim>64</dim>
					<dim>1</dim>
					<dim>1</dim>
					<dim>3</dim>
					<dim>3</dim>
				</port>
			</input>
			<output>
				<port id="1" precision="FP32">
					<dim>64</dim>
					<dim>1</dim>
					<dim>1</dim>
					<dim>3</dim>
					<dim>3</dim>
				</port>
			</output>
		</layer>
		<layer id="199" name="Constant_556022" type="Const" version="opset1">
			<data element_type="f32" shape="64, 1, 1, 1, 1" offset="24264" size="256" />
			<output>
				<port id="0" precision="FP32">
					<dim>64</dim>
					<dim>1</dim>
					<dim>1</dim>
					<dim>1</dim>
					<dim>1</dim>
				</port>
			</output>
		</layer>
		<layer id="200" name="/model/backbone/stages.1/downsample/conv/Conv/WithoutBiases/fq_weights_1" type="Multiply" version="opset1">
			<data auto_broadcast="numpy" />
			<input>
				<port id="0" precision="FP32">
					<dim>64</dim>
					<dim>1</dim>
					<dim>1</dim>
					<dim>3</dim>
					<dim>3</dim>
				</port>
				<port id="1" precision="FP32">
					<dim>64</dim>
					<dim>1</dim>
					<dim>1</dim>
					<dim>1</dim>
					<dim>1</dim>
				</port>
			</input>
			<output>
				<port id="2" precision="FP32">
					<dim>64</dim>
					<dim>1</dim>
					<dim>1</dim>
					<dim>3</dim>
					<dim>3</dim>
				</port>
			</output>
		</layer>
		<layer id="201" name="/model/backbone/stages.1/downsample/conv/Conv/WithoutBiases" type="GroupConvolution" version="opset1">
			<data strides="2, 2" pads_begin="1, 1" pads_end="1, 1" dilations="1, 1" auto_pad="explicit" />
			<input>
				<port id="0" precision="FP32">
					<dim>1</dim>
					<dim>64</dim>
					<dim>160</dim>
					<dim>160</dim>
				</port>
				<port id="1" precision="FP32">
					<dim>64</dim>
					<dim>1</dim>
					<dim>1</dim>
					<dim>3</dim>
					<dim>3</dim>
				</port>
			</input>
			<output>
				<port id="2" precision="FP32">
					<dim>1</dim>
					<dim>64</dim>
					<dim>80</dim>
					<dim>80</dim>
				</port>
			</output>
		</layer>
		<layer id="202" name="Reshape_625" type="Const" version="opset1">
			<data element_type="f32" shape="1, 64, 1, 1" offset="24520" size="256" />
			<output>
				<port id="0" precision="FP32">
					<dim>1</dim>
					<dim>64</dim>
					<dim>1</dim>
					<dim>1</dim>
				</port>
			</output>
		</layer>
		<layer id="203" name="/model/backbone/stages.1/downsample/conv/Conv" type="Add" version="opset1">
			<data auto_broadcast="numpy" />
			<input>
				<port id="0" precision="FP32">
					<dim>1</dim>
					<dim>64</dim>
					<dim>80</dim>
					<dim>80</dim>
				</port>
				<port id="1" precision="FP32">
					<dim>1</dim>
					<dim>64</dim>
					<dim>1</dim>
					<dim>1</dim>
				</port>
			</input>
			<output>
				<port id="2" precision="FP32" names="/model/backbone/stages.1/downsample/conv/Conv_output_0">
					<dim>1</dim>
					<dim>64</dim>
					<dim>80</dim>
					<dim>80</dim>
				</port>
			</output>
		</layer>
		<layer id="204" name="/model/backbone/stages.1/downsample/conv/Conv/fq_output_0/input_low" type="Const" version="opset1">
			<data element_type="f32" shape="" offset="24776" size="4" />
			<output>
				<port id="0" precision="FP32" />
			</output>
		</layer>
		<layer id="205" name="/model/backbone/stages.1/downsample/conv/Conv/fq_output_0/input_high" type="Const" version="opset1">
			<data element_type="f32" shape="" offset="24780" size="4" />
			<output>
				<port id="0" precision="FP32" />
			</output>
		</layer>
		<layer id="206" name="/model/backbone/stages.1/downsample/conv/Conv/fq_output_0/output_low" type="Const" version="opset1">
			<data element_type="f32" shape="" offset="24776" size="4" />
			<output>
				<port id="0" precision="FP32" />
			</output>
		</layer>
		<layer id="207" name="/model/backbone/stages.1/downsample/conv/Conv/fq_output_0/output_high" type="Const" version="opset1">
			<data element_type="f32" shape="" offset="24780" size="4" />
			<output>
				<port id="0" precision="FP32" />
			</output>
		</layer>
		<layer id="208" name="/model/backbone/stages.1/downsample/conv/Conv/fq_output_0" type="FakeQuantize" version="opset1">
			<data levels="256" auto_broadcast="numpy" />
			<input>
				<port id="0" precision="FP32">
					<dim>1</dim>
					<dim>64</dim>
					<dim>80</dim>
					<dim>80</dim>
				</port>
				<port id="1" precision="FP32" />
				<port id="2" precision="FP32" />
				<port id="3" precision="FP32" />
				<port id="4" precision="FP32" />
			</input>
			<output>
				<port id="5" precision="FP32">
					<dim>1</dim>
					<dim>64</dim>
					<dim>80</dim>
					<dim>80</dim>
				</port>
			</output>
		</layer>
		<layer id="209" name="Constant_13576" type="Const" version="opset1">
			<data element_type="f32" shape="1, 1, 1, 1" offset="24784" size="4" />
			<output>
				<port id="0" precision="FP32">
					<dim>1</dim>
					<dim>1</dim>
					<dim>1</dim>
					<dim>1</dim>
				</port>
			</output>
		</layer>
		<layer id="210" name="Constant_556024" type="Const" version="opset1">
			<data element_type="i8" shape="32, 64, 3, 3" offset="24788" size="18432" />
			<output>
				<port id="0" precision="I8">
					<dim>32</dim>
					<dim>64</dim>
					<dim>3</dim>
					<dim>3</dim>
				</port>
			</output>
		</layer>
		<layer id="211" name="Convert_556025" type="Convert" version="opset1">
			<data destination_type="f32" />
			<input>
				<port id="0" precision="I8">
					<dim>32</dim>
					<dim>64</dim>
					<dim>3</dim>
					<dim>3</dim>
				</port>
			</input>
			<output>
				<port id="1" precision="FP32">
					<dim>32</dim>
					<dim>64</dim>
					<dim>3</dim>
					<dim>3</dim>
				</port>
			</output>
		</layer>
		<layer id="212" name="Constant_556026" type="Const" version="opset1">
			<data element_type="f32" shape="32, 1, 1, 1" offset="43220" size="128" />
			<output>
				<port id="0" precision="FP32">
					<dim>32</dim>
					<dim>1</dim>
					<dim>1</dim>
					<dim>1</dim>
				</port>
			</output>
		</layer>
		<layer id="213" name="/model/backbone/stages.1/blocks/blocks.0/layers.0/conv/Conv/WithoutBiases/fq_weights_1" type="Multiply" version="opset1">
			<data auto_broadcast="numpy" />
			<input>
				<port id="0" precision="FP32">
					<dim>32</dim>
					<dim>64</dim>
					<dim>3</dim>
					<dim>3</dim>
				</port>
				<port id="1" precision="FP32">
					<dim>32</dim>
					<dim>1</dim>
					<dim>1</dim>
					<dim>1</dim>
				</port>
			</input>
			<output>
				<port id="2" precision="FP32">
					<dim>32</dim>
					<dim>64</dim>
					<dim>3</dim>
					<dim>3</dim>
				</port>
			</output>
		</layer>
		<layer id="214" name="/model/backbone/stages.1/blocks/blocks.0/layers.0/conv/Conv/WithoutBiases" type="Convolution" version="opset1">
			<data strides="1, 1" dilations="1, 1" pads_begin="1, 1" pads_end="1, 1" auto_pad="explicit" />
			<input>
				<port id="0" precision="FP32">
					<dim>1</dim>
					<dim>64</dim>
					<dim>80</dim>
					<dim>80</dim>
				</port>
				<port id="1" precision="FP32">
					<dim>32</dim>
					<dim>64</dim>
					<dim>3</dim>
					<dim>3</dim>
				</port>
			</input>
			<output>
				<port id="2" precision="FP32">
					<dim>1</dim>
					<dim>32</dim>
					<dim>80</dim>
					<dim>80</dim>
				</port>
			</output>
		</layer>
		<layer id="215" name="Reshape_638" type="Const" version="opset1">
			<data element_type="f32" shape="1, 32, 1, 1" offset="43348" size="128" />
			<output>
				<port id="0" precision="FP32">
					<dim>1</dim>
					<dim>32</dim>
					<dim>1</dim>
					<dim>1</dim>
				</port>
			</output>
		</layer>
		<layer id="216" name="/model/backbone/stages.1/blocks/blocks.0/layers.0/conv/Conv" type="Add" version="opset1">
			<data auto_broadcast="numpy" />
			<input>
				<port id="0" precision="FP32">
					<dim>1</dim>
					<dim>32</dim>
					<dim>80</dim>
					<dim>80</dim>
				</port>
				<port id="1" precision="FP32">
					<dim>1</dim>
					<dim>32</dim>
					<dim>1</dim>
					<dim>1</dim>
				</port>
			</input>
			<output>
				<port id="2" precision="FP32" names="/model/backbone/stages.1/blocks/blocks.0/layers.0/conv/Conv_output_0">
					<dim>1</dim>
					<dim>32</dim>
					<dim>80</dim>
					<dim>80</dim>
				</port>
			</output>
		</layer>
		<layer id="217" name="/model/backbone/stages.1/blocks/blocks.0/layers.0/act/Relu" type="ReLU" version="opset1">
			<input>
				<port id="0" precision="FP32">
					<dim>1</dim>
					<dim>32</dim>
					<dim>80</dim>
					<dim>80</dim>
				</port>
			</input>
			<output>
				<port id="1" precision="FP32" names="/model/backbone/stages.1/blocks/blocks.0/layers.0/act/Relu_output_0">
					<dim>1</dim>
					<dim>32</dim>
					<dim>80</dim>
					<dim>80</dim>
				</port>
			</output>
		</layer>
		<layer id="218" name="/model/backbone/stages.1/blocks/blocks.0/layers.0/lab/Mul" type="Multiply" version="opset1">
			<data auto_broadcast="numpy" />
			<input>
				<port id="0" precision="FP32">
					<dim>1</dim>
					<dim>1</dim>
					<dim>1</dim>
					<dim>1</dim>
				</port>
				<port id="1" precision="FP32">
					<dim>1</dim>
					<dim>32</dim>
					<dim>80</dim>
					<dim>80</dim>
				</port>
			</input>
			<output>
				<port id="2" precision="FP32" names="/model/backbone/stages.1/blocks/blocks.0/layers.0/lab/Mul_output_0">
					<dim>1</dim>
					<dim>32</dim>
					<dim>80</dim>
					<dim>80</dim>
				</port>
			</output>
		</layer>
		<layer id="219" name="Constant_13577" type="Const" version="opset1">
			<data element_type="f32" shape="1, 1, 1, 1" offset="43476" size="4" />
			<output>
				<port id="0" precision="FP32">
					<dim>1</dim>
					<dim>1</dim>
					<dim>1</dim>
					<dim>1</dim>
				</port>
			</output>
		</layer>
		<layer id="220" name="/model/backbone/stages.1/blocks/blocks.0/layers.0/lab/Add" type="Add" version="opset1">
			<data auto_broadcast="numpy" />
			<input>
				<port id="0" precision="FP32">
					<dim>1</dim>
					<dim>32</dim>
					<dim>80</dim>
					<dim>80</dim>
				</port>
				<port id="1" precision="FP32">
					<dim>1</dim>
					<dim>1</dim>
					<dim>1</dim>
					<dim>1</dim>
				</port>
			</input>
			<output>
				<port id="2" precision="FP32" names="/model/backbone/stages.1/blocks/blocks.0/layers.0/lab/Add_output_0">
					<dim>1</dim>
					<dim>32</dim>
					<dim>80</dim>
					<dim>80</dim>
				</port>
			</output>
		</layer>
		<layer id="221" name="/model/backbone/stages.1/blocks/blocks.0/layers.0/lab/Add/fq_output_0/input_low" type="Const" version="opset1">
			<data element_type="f32" shape="" offset="24776" size="4" />
			<output>
				<port id="0" precision="FP32" />
			</output>
		</layer>
		<layer id="222" name="/model/backbone/stages.1/blocks/blocks.0/layers.0/lab/Add/fq_output_0/input_high" type="Const" version="opset1">
			<data element_type="f32" shape="" offset="24780" size="4" />
			<output>
				<port id="0" precision="FP32" />
			</output>
		</layer>
		<layer id="223" name="/model/backbone/stages.1/blocks/blocks.0/layers.0/lab/Add/fq_output_0/output_low" type="Const" version="opset1">
			<data element_type="f32" shape="" offset="24776" size="4" />
			<output>
				<port id="0" precision="FP32" />
			</output>
		</layer>
		<layer id="224" name="/model/backbone/stages.1/blocks/blocks.0/layers.0/lab/Add/fq_output_0/output_high" type="Const" version="opset1">
			<data element_type="f32" shape="" offset="24780" size="4" />
			<output>
				<port id="0" precision="FP32" />
			</output>
		</layer>
		<layer id="225" name="/model/backbone/stages.1/blocks/blocks.0/layers.0/lab/Add/fq_output_0" type="FakeQuantize" version="opset1">
			<data levels="256" auto_broadcast="numpy" />
			<input>
				<port id="0" precision="FP32">
					<dim>1</dim>
					<dim>32</dim>
					<dim>80</dim>
					<dim>80</dim>
				</port>
				<port id="1" precision="FP32" />
				<port id="2" precision="FP32" />
				<port id="3" precision="FP32" />
				<port id="4" precision="FP32" />
			</input>
			<output>
				<port id="5" precision="FP32">
					<dim>1</dim>
					<dim>32</dim>
					<dim>80</dim>
					<dim>80</dim>
				</port>
			</output>
		</layer>
		<layer id="226" name="Constant_13578" type="Const" version="opset1">
			<data element_type="f32" shape="1, 1, 1, 1" offset="43480" size="4" />
			<output>
				<port id="0" precision="FP32">
					<dim>1</dim>
					<dim>1</dim>
					<dim>1</dim>
					<dim>1</dim>
				</port>
			</output>
		</layer>
		<layer id="227" name="Constant_556028" type="Const" version="opset1">
			<data element_type="i8" shape="32, 32, 3, 3" offset="43484" size="9216" />
			<output>
				<port id="0" precision="I8">
					<dim>32</dim>
					<dim>32</dim>
					<dim>3</dim>
					<dim>3</dim>
				</port>
			</output>
		</layer>
		<layer id="228" name="Convert_556029" type="Convert" version="opset1">
			<data destination_type="f32" />
			<input>
				<port id="0" precision="I8">
					<dim>32</dim>
					<dim>32</dim>
					<dim>3</dim>
					<dim>3</dim>
				</port>
			</input>
			<output>
				<port id="1" precision="FP32">
					<dim>32</dim>
					<dim>32</dim>
					<dim>3</dim>
					<dim>3</dim>
				</port>
			</output>
		</layer>
		<layer id="229" name="Constant_556030" type="Const" version="opset1">
			<data element_type="f32" shape="32, 1, 1, 1" offset="52700" size="128" />
			<output>
				<port id="0" precision="FP32">
					<dim>32</dim>
					<dim>1</dim>
					<dim>1</dim>
					<dim>1</dim>
				</port>
			</output>
		</layer>
		<layer id="230" name="/model/backbone/stages.1/blocks/blocks.0/layers.1/conv/Conv/WithoutBiases/fq_weights_1" type="Multiply" version="opset1">
			<data auto_broadcast="numpy" />
			<input>
				<port id="0" precision="FP32">
					<dim>32</dim>
					<dim>32</dim>
					<dim>3</dim>
					<dim>3</dim>
				</port>
				<port id="1" precision="FP32">
					<dim>32</dim>
					<dim>1</dim>
					<dim>1</dim>
					<dim>1</dim>
				</port>
			</input>
			<output>
				<port id="2" precision="FP32">
					<dim>32</dim>
					<dim>32</dim>
					<dim>3</dim>
					<dim>3</dim>
				</port>
			</output>
		</layer>
		<layer id="231" name="/model/backbone/stages.1/blocks/blocks.0/layers.1/conv/Conv/WithoutBiases" type="Convolution" version="opset1">
			<data strides="1, 1" dilations="1, 1" pads_begin="1, 1" pads_end="1, 1" auto_pad="explicit" />
			<input>
				<port id="0" precision="FP32">
					<dim>1</dim>
					<dim>32</dim>
					<dim>80</dim>
					<dim>80</dim>
				</port>
				<port id="1" precision="FP32">
					<dim>32</dim>
					<dim>32</dim>
					<dim>3</dim>
					<dim>3</dim>
				</port>
			</input>
			<output>
				<port id="2" precision="FP32">
					<dim>1</dim>
					<dim>32</dim>
					<dim>80</dim>
					<dim>80</dim>
				</port>
			</output>
		</layer>
		<layer id="232" name="Reshape_654" type="Const" version="opset1">
			<data element_type="f32" shape="1, 32, 1, 1" offset="52828" size="128" />
			<output>
				<port id="0" precision="FP32">
					<dim>1</dim>
					<dim>32</dim>
					<dim>1</dim>
					<dim>1</dim>
				</port>
			</output>
		</layer>
		<layer id="233" name="/model/backbone/stages.1/blocks/blocks.0/layers.1/conv/Conv" type="Add" version="opset1">
			<data auto_broadcast="numpy" />
			<input>
				<port id="0" precision="FP32">
					<dim>1</dim>
					<dim>32</dim>
					<dim>80</dim>
					<dim>80</dim>
				</port>
				<port id="1" precision="FP32">
					<dim>1</dim>
					<dim>32</dim>
					<dim>1</dim>
					<dim>1</dim>
				</port>
			</input>
			<output>
				<port id="2" precision="FP32" names="/model/backbone/stages.1/blocks/blocks.0/layers.1/conv/Conv_output_0">
					<dim>1</dim>
					<dim>32</dim>
					<dim>80</dim>
					<dim>80</dim>
				</port>
			</output>
		</layer>
		<layer id="234" name="/model/backbone/stages.1/blocks/blocks.0/layers.1/act/Relu" type="ReLU" version="opset1">
			<input>
				<port id="0" precision="FP32">
					<dim>1</dim>
					<dim>32</dim>
					<dim>80</dim>
					<dim>80</dim>
				</port>
			</input>
			<output>
				<port id="1" precision="FP32" names="/model/backbone/stages.1/blocks/blocks.0/layers.1/act/Relu_output_0">
					<dim>1</dim>
					<dim>32</dim>
					<dim>80</dim>
					<dim>80</dim>
				</port>
			</output>
		</layer>
		<layer id="235" name="/model/backbone/stages.1/blocks/blocks.0/layers.1/lab/Mul" type="Multiply" version="opset1">
			<data auto_broadcast="numpy" />
			<input>
				<port id="0" precision="FP32">
					<dim>1</dim>
					<dim>1</dim>
					<dim>1</dim>
					<dim>1</dim>
				</port>
				<port id="1" precision="FP32">
					<dim>1</dim>
					<dim>32</dim>
					<dim>80</dim>
					<dim>80</dim>
				</port>
			</input>
			<output>
				<port id="2" precision="FP32" names="/model/backbone/stages.1/blocks/blocks.0/layers.1/lab/Mul_output_0">
					<dim>1</dim>
					<dim>32</dim>
					<dim>80</dim>
					<dim>80</dim>
				</port>
			</output>
		</layer>
		<layer id="236" name="Constant_13579" type="Const" version="opset1">
			<data element_type="f32" shape="1, 1, 1, 1" offset="52956" size="4" />
			<output>
				<port id="0" precision="FP32">
					<dim>1</dim>
					<dim>1</dim>
					<dim>1</dim>
					<dim>1</dim>
				</port>
			</output>
		</layer>
		<layer id="237" name="/model/backbone/stages.1/blocks/blocks.0/layers.1/lab/Add" type="Add" version="opset1">
			<data auto_broadcast="numpy" />
			<input>
				<port id="0" precision="FP32">
					<dim>1</dim>
					<dim>32</dim>
					<dim>80</dim>
					<dim>80</dim>
				</port>
				<port id="1" precision="FP32">
					<dim>1</dim>
					<dim>1</dim>
					<dim>1</dim>
					<dim>1</dim>
				</port>
			</input>
			<output>
				<port id="2" precision="FP32" names="/model/backbone/stages.1/blocks/blocks.0/layers.1/lab/Add_output_0">
					<dim>1</dim>
					<dim>32</dim>
					<dim>80</dim>
					<dim>80</dim>
				</port>
			</output>
		</layer>
		<layer id="238" name="/model/backbone/stages.1/blocks/blocks.0/layers.1/lab/Add/fq_output_0/input_low" type="Const" version="opset1">
			<data element_type="f32" shape="" offset="24776" size="4" />
			<output>
				<port id="0" precision="FP32" />
			</output>
		</layer>
		<layer id="239" name="/model/backbone/stages.1/blocks/blocks.0/layers.1/lab/Add/fq_output_0/input_high" type="Const" version="opset1">
			<data element_type="f32" shape="" offset="24780" size="4" />
			<output>
				<port id="0" precision="FP32" />
			</output>
		</layer>
		<layer id="240" name="/model/backbone/stages.1/blocks/blocks.0/layers.1/lab/Add/fq_output_0/output_low" type="Const" version="opset1">
			<data element_type="f32" shape="" offset="24776" size="4" />
			<output>
				<port id="0" precision="FP32" />
			</output>
		</layer>
		<layer id="241" name="/model/backbone/stages.1/blocks/blocks.0/layers.1/lab/Add/fq_output_0/output_high" type="Const" version="opset1">
			<data element_type="f32" shape="" offset="24780" size="4" />
			<output>
				<port id="0" precision="FP32" />
			</output>
		</layer>
		<layer id="242" name="/model/backbone/stages.1/blocks/blocks.0/layers.1/lab/Add/fq_output_0" type="FakeQuantize" version="opset1">
			<data levels="256" auto_broadcast="numpy" />
			<input>
				<port id="0" precision="FP32">
					<dim>1</dim>
					<dim>32</dim>
					<dim>80</dim>
					<dim>80</dim>
				</port>
				<port id="1" precision="FP32" />
				<port id="2" precision="FP32" />
				<port id="3" precision="FP32" />
				<port id="4" precision="FP32" />
			</input>
			<output>
				<port id="5" precision="FP32">
					<dim>1</dim>
					<dim>32</dim>
					<dim>80</dim>
					<dim>80</dim>
				</port>
			</output>
		</layer>
		<layer id="243" name="Constant_13580" type="Const" version="opset1">
			<data element_type="f32" shape="1, 1, 1, 1" offset="52960" size="4" />
			<output>
				<port id="0" precision="FP32">
					<dim>1</dim>
					<dim>1</dim>
					<dim>1</dim>
					<dim>1</dim>
				</port>
			</output>
		</layer>
		<layer id="244" name="Constant_556032" type="Const" version="opset1">
			<data element_type="i8" shape="32, 32, 3, 3" offset="52964" size="9216" />
			<output>
				<port id="0" precision="I8">
					<dim>32</dim>
					<dim>32</dim>
					<dim>3</dim>
					<dim>3</dim>
				</port>
			</output>
		</layer>
		<layer id="245" name="Convert_556033" type="Convert" version="opset1">
			<data destination_type="f32" />
			<input>
				<port id="0" precision="I8">
					<dim>32</dim>
					<dim>32</dim>
					<dim>3</dim>
					<dim>3</dim>
				</port>
			</input>
			<output>
				<port id="1" precision="FP32">
					<dim>32</dim>
					<dim>32</dim>
					<dim>3</dim>
					<dim>3</dim>
				</port>
			</output>
		</layer>
		<layer id="246" name="Constant_556034" type="Const" version="opset1">
			<data element_type="f32" shape="32, 1, 1, 1" offset="62180" size="128" />
			<output>
				<port id="0" precision="FP32">
					<dim>32</dim>
					<dim>1</dim>
					<dim>1</dim>
					<dim>1</dim>
				</port>
			</output>
		</layer>
		<layer id="247" name="/model/backbone/stages.1/blocks/blocks.0/layers.2/conv/Conv/WithoutBiases/fq_weights_1" type="Multiply" version="opset1">
			<data auto_broadcast="numpy" />
			<input>
				<port id="0" precision="FP32">
					<dim>32</dim>
					<dim>32</dim>
					<dim>3</dim>
					<dim>3</dim>
				</port>
				<port id="1" precision="FP32">
					<dim>32</dim>
					<dim>1</dim>
					<dim>1</dim>
					<dim>1</dim>
				</port>
			</input>
			<output>
				<port id="2" precision="FP32">
					<dim>32</dim>
					<dim>32</dim>
					<dim>3</dim>
					<dim>3</dim>
				</port>
			</output>
		</layer>
		<layer id="248" name="/model/backbone/stages.1/blocks/blocks.0/layers.2/conv/Conv/WithoutBiases" type="Convolution" version="opset1">
			<data strides="1, 1" dilations="1, 1" pads_begin="1, 1" pads_end="1, 1" auto_pad="explicit" />
			<input>
				<port id="0" precision="FP32">
					<dim>1</dim>
					<dim>32</dim>
					<dim>80</dim>
					<dim>80</dim>
				</port>
				<port id="1" precision="FP32">
					<dim>32</dim>
					<dim>32</dim>
					<dim>3</dim>
					<dim>3</dim>
				</port>
			</input>
			<output>
				<port id="2" precision="FP32">
					<dim>1</dim>
					<dim>32</dim>
					<dim>80</dim>
					<dim>80</dim>
				</port>
			</output>
		</layer>
		<layer id="249" name="Reshape_670" type="Const" version="opset1">
			<data element_type="f32" shape="1, 32, 1, 1" offset="62308" size="128" />
			<output>
				<port id="0" precision="FP32">
					<dim>1</dim>
					<dim>32</dim>
					<dim>1</dim>
					<dim>1</dim>
				</port>
			</output>
		</layer>
		<layer id="250" name="/model/backbone/stages.1/blocks/blocks.0/layers.2/conv/Conv" type="Add" version="opset1">
			<data auto_broadcast="numpy" />
			<input>
				<port id="0" precision="FP32">
					<dim>1</dim>
					<dim>32</dim>
					<dim>80</dim>
					<dim>80</dim>
				</port>
				<port id="1" precision="FP32">
					<dim>1</dim>
					<dim>32</dim>
					<dim>1</dim>
					<dim>1</dim>
				</port>
			</input>
			<output>
				<port id="2" precision="FP32" names="/model/backbone/stages.1/blocks/blocks.0/layers.2/conv/Conv_output_0">
					<dim>1</dim>
					<dim>32</dim>
					<dim>80</dim>
					<dim>80</dim>
				</port>
			</output>
		</layer>
		<layer id="251" name="/model/backbone/stages.1/blocks/blocks.0/layers.2/act/Relu" type="ReLU" version="opset1">
			<input>
				<port id="0" precision="FP32">
					<dim>1</dim>
					<dim>32</dim>
					<dim>80</dim>
					<dim>80</dim>
				</port>
			</input>
			<output>
				<port id="1" precision="FP32" names="/model/backbone/stages.1/blocks/blocks.0/layers.2/act/Relu_output_0">
					<dim>1</dim>
					<dim>32</dim>
					<dim>80</dim>
					<dim>80</dim>
				</port>
			</output>
		</layer>
		<layer id="252" name="/model/backbone/stages.1/blocks/blocks.0/layers.2/lab/Mul" type="Multiply" version="opset1">
			<data auto_broadcast="numpy" />
			<input>
				<port id="0" precision="FP32">
					<dim>1</dim>
					<dim>1</dim>
					<dim>1</dim>
					<dim>1</dim>
				</port>
				<port id="1" precision="FP32">
					<dim>1</dim>
					<dim>32</dim>
					<dim>80</dim>
					<dim>80</dim>
				</port>
			</input>
			<output>
				<port id="2" precision="FP32" names="/model/backbone/stages.1/blocks/blocks.0/layers.2/lab/Mul_output_0">
					<dim>1</dim>
					<dim>32</dim>
					<dim>80</dim>
					<dim>80</dim>
				</port>
			</output>
		</layer>
		<layer id="253" name="Constant_13581" type="Const" version="opset1">
			<data element_type="f32" shape="1, 1, 1, 1" offset="62436" size="4" />
			<output>
				<port id="0" precision="FP32">
					<dim>1</dim>
					<dim>1</dim>
					<dim>1</dim>
					<dim>1</dim>
				</port>
			</output>
		</layer>
		<layer id="254" name="/model/backbone/stages.1/blocks/blocks.0/layers.2/lab/Add" type="Add" version="opset1">
			<data auto_broadcast="numpy" />
			<input>
				<port id="0" precision="FP32">
					<dim>1</dim>
					<dim>32</dim>
					<dim>80</dim>
					<dim>80</dim>
				</port>
				<port id="1" precision="FP32">
					<dim>1</dim>
					<dim>1</dim>
					<dim>1</dim>
					<dim>1</dim>
				</port>
			</input>
			<output>
				<port id="2" precision="FP32" names="/model/backbone/stages.1/blocks/blocks.0/layers.2/lab/Add_output_0">
					<dim>1</dim>
					<dim>32</dim>
					<dim>80</dim>
					<dim>80</dim>
				</port>
			</output>
		</layer>
		<layer id="255" name="/model/backbone/stages.1/blocks/blocks.0/layers.2/lab/Add/fq_output_0/input_low" type="Const" version="opset1">
			<data element_type="f32" shape="" offset="24776" size="4" />
			<output>
				<port id="0" precision="FP32" />
			</output>
		</layer>
		<layer id="256" name="/model/backbone/stages.1/blocks/blocks.0/layers.2/lab/Add/fq_output_0/input_high" type="Const" version="opset1">
			<data element_type="f32" shape="" offset="24780" size="4" />
			<output>
				<port id="0" precision="FP32" />
			</output>
		</layer>
		<layer id="257" name="/model/backbone/stages.1/blocks/blocks.0/layers.2/lab/Add/fq_output_0/output_low" type="Const" version="opset1">
			<data element_type="f32" shape="" offset="24776" size="4" />
			<output>
				<port id="0" precision="FP32" />
			</output>
		</layer>
		<layer id="258" name="/model/backbone/stages.1/blocks/blocks.0/layers.2/lab/Add/fq_output_0/output_high" type="Const" version="opset1">
			<data element_type="f32" shape="" offset="24780" size="4" />
			<output>
				<port id="0" precision="FP32" />
			</output>
		</layer>
		<layer id="259" name="/model/backbone/stages.1/blocks/blocks.0/layers.2/lab/Add/fq_output_0" type="FakeQuantize" version="opset1">
			<data levels="256" auto_broadcast="numpy" />
			<input>
				<port id="0" precision="FP32">
					<dim>1</dim>
					<dim>32</dim>
					<dim>80</dim>
					<dim>80</dim>
				</port>
				<port id="1" precision="FP32" />
				<port id="2" precision="FP32" />
				<port id="3" precision="FP32" />
				<port id="4" precision="FP32" />
			</input>
			<output>
				<port id="5" precision="FP32">
					<dim>1</dim>
					<dim>32</dim>
					<dim>80</dim>
					<dim>80</dim>
				</port>
			</output>
		</layer>
		<layer id="260" name="/model/backbone/stages.1/blocks/blocks.0/Concat" type="Concat" version="opset1">
			<data axis="1" />
			<input>
				<port id="0" precision="FP32">
					<dim>1</dim>
					<dim>64</dim>
					<dim>80</dim>
					<dim>80</dim>
				</port>
				<port id="1" precision="FP32">
					<dim>1</dim>
					<dim>32</dim>
					<dim>80</dim>
					<dim>80</dim>
				</port>
				<port id="2" precision="FP32">
					<dim>1</dim>
					<dim>32</dim>
					<dim>80</dim>
					<dim>80</dim>
				</port>
				<port id="3" precision="FP32">
					<dim>1</dim>
					<dim>32</dim>
					<dim>80</dim>
					<dim>80</dim>
				</port>
			</input>
			<output>
				<port id="4" precision="FP32" names="/model/backbone/stages.1/blocks/blocks.0/Concat_output_0">
					<dim>1</dim>
					<dim>160</dim>
					<dim>80</dim>
					<dim>80</dim>
				</port>
			</output>
		</layer>
		<layer id="261" name="Constant_556036" type="Const" version="opset1">
			<data element_type="i8" shape="128, 160, 1, 1" offset="62440" size="20480" />
			<output>
				<port id="0" precision="I8">
					<dim>128</dim>
					<dim>160</dim>
					<dim>1</dim>
					<dim>1</dim>
				</port>
			</output>
		</layer>
		<layer id="262" name="Convert_556037" type="Convert" version="opset1">
			<data destination_type="f32" />
			<input>
				<port id="0" precision="I8">
					<dim>128</dim>
					<dim>160</dim>
					<dim>1</dim>
					<dim>1</dim>
				</port>
			</input>
			<output>
				<port id="1" precision="FP32">
					<dim>128</dim>
					<dim>160</dim>
					<dim>1</dim>
					<dim>1</dim>
				</port>
			</output>
		</layer>
		<layer id="263" name="Constant_556038" type="Const" version="opset1">
			<data element_type="f32" shape="128, 1, 1, 1" offset="82920" size="512" />
			<output>
				<port id="0" precision="FP32">
					<dim>128</dim>
					<dim>1</dim>
					<dim>1</dim>
					<dim>1</dim>
				</port>
			</output>
		</layer>
		<layer id="264" name="/model/backbone/stages.1/blocks/blocks.0/aggregation/aggregation.0/conv/Conv/WithoutBiases/fq_weights_1" type="Multiply" version="opset1">
			<data auto_broadcast="numpy" />
			<input>
				<port id="0" precision="FP32">
					<dim>128</dim>
					<dim>160</dim>
					<dim>1</dim>
					<dim>1</dim>
				</port>
				<port id="1" precision="FP32">
					<dim>128</dim>
					<dim>1</dim>
					<dim>1</dim>
					<dim>1</dim>
				</port>
			</input>
			<output>
				<port id="2" precision="FP32">
					<dim>128</dim>
					<dim>160</dim>
					<dim>1</dim>
					<dim>1</dim>
				</port>
			</output>
		</layer>
		<layer id="265" name="/model/backbone/stages.1/blocks/blocks.0/aggregation/aggregation.0/conv/Conv/WithoutBiases" type="Convolution" version="opset1">
			<data strides="1, 1" dilations="1, 1" pads_begin="0, 0" pads_end="0, 0" auto_pad="explicit" />
			<input>
				<port id="0" precision="FP32">
					<dim>1</dim>
					<dim>160</dim>
					<dim>80</dim>
					<dim>80</dim>
				</port>
				<port id="1" precision="FP32">
					<dim>128</dim>
					<dim>160</dim>
					<dim>1</dim>
					<dim>1</dim>
				</port>
			</input>
			<output>
				<port id="2" precision="FP32">
					<dim>1</dim>
					<dim>128</dim>
					<dim>80</dim>
					<dim>80</dim>
				</port>
			</output>
		</layer>
		<layer id="266" name="Reshape_687" type="Const" version="opset1">
			<data element_type="f32" shape="1, 128, 1, 1" offset="83432" size="512" />
			<output>
				<port id="0" precision="FP32">
					<dim>1</dim>
					<dim>128</dim>
					<dim>1</dim>
					<dim>1</dim>
				</port>
			</output>
		</layer>
		<layer id="267" name="/model/backbone/stages.1/blocks/blocks.0/aggregation/aggregation.0/conv/Conv" type="Add" version="opset1">
			<data auto_broadcast="numpy" />
			<input>
				<port id="0" precision="FP32">
					<dim>1</dim>
					<dim>128</dim>
					<dim>80</dim>
					<dim>80</dim>
				</port>
				<port id="1" precision="FP32">
					<dim>1</dim>
					<dim>128</dim>
					<dim>1</dim>
					<dim>1</dim>
				</port>
			</input>
			<output>
				<port id="2" precision="FP32" names="/model/backbone/stages.1/blocks/blocks.0/aggregation/aggregation.0/conv/Conv_output_0">
					<dim>1</dim>
					<dim>128</dim>
					<dim>80</dim>
					<dim>80</dim>
				</port>
			</output>
		</layer>
		<layer id="268" name="/model/backbone/stages.1/blocks/blocks.0/aggregation/aggregation.0/act/Relu" type="ReLU" version="opset1">
			<input>
				<port id="0" precision="FP32">
					<dim>1</dim>
					<dim>128</dim>
					<dim>80</dim>
					<dim>80</dim>
				</port>
			</input>
			<output>
				<port id="1" precision="FP32" names="/model/backbone/stages.1/blocks/blocks.0/aggregation/aggregation.0/act/Relu_output_0">
					<dim>1</dim>
					<dim>128</dim>
					<dim>80</dim>
					<dim>80</dim>
				</port>
			</output>
		</layer>
		<layer id="269" name="/model/backbone/stages.1/blocks/blocks.0/aggregation/aggregation.0/lab/Mul" type="Multiply" version="opset1">
			<data auto_broadcast="numpy" />
			<input>
				<port id="0" precision="FP32">
					<dim>1</dim>
					<dim>1</dim>
					<dim>1</dim>
					<dim>1</dim>
				</port>
				<port id="1" precision="FP32">
					<dim>1</dim>
					<dim>128</dim>
					<dim>80</dim>
					<dim>80</dim>
				</port>
			</input>
			<output>
				<port id="2" precision="FP32" names="/model/backbone/stages.1/blocks/blocks.0/aggregation/aggregation.0/lab/Mul_output_0">
					<dim>1</dim>
					<dim>128</dim>
					<dim>80</dim>
					<dim>80</dim>
				</port>
			</output>
		</layer>
		<layer id="270" name="Constant_13583" type="Const" version="opset1">
			<data element_type="f32" shape="1, 1, 1, 1" offset="83944" size="4" />
			<output>
				<port id="0" precision="FP32">
					<dim>1</dim>
					<dim>1</dim>
					<dim>1</dim>
					<dim>1</dim>
				</port>
			</output>
		</layer>
		<layer id="271" name="/model/backbone/stages.1/blocks/blocks.0/aggregation/aggregation.0/lab/Add" type="Add" version="opset1">
			<data auto_broadcast="numpy" />
			<input>
				<port id="0" precision="FP32">
					<dim>1</dim>
					<dim>128</dim>
					<dim>80</dim>
					<dim>80</dim>
				</port>
				<port id="1" precision="FP32">
					<dim>1</dim>
					<dim>1</dim>
					<dim>1</dim>
					<dim>1</dim>
				</port>
			</input>
			<output>
				<port id="2" precision="FP32" names="/model/backbone/stages.1/blocks/blocks.0/aggregation/aggregation.0/lab/Add_output_0">
					<dim>1</dim>
					<dim>128</dim>
					<dim>80</dim>
					<dim>80</dim>
				</port>
			</output>
		</layer>
		<layer id="272" name="/model/backbone/stages.1/blocks/blocks.0/aggregation/aggregation.0/lab/Add/fq_output_0/input_low" type="Const" version="opset1">
			<data element_type="f32" shape="" offset="83948" size="4" />
			<output>
				<port id="0" precision="FP32" />
			</output>
		</layer>
		<layer id="273" name="/model/backbone/stages.1/blocks/blocks.0/aggregation/aggregation.0/lab/Add/fq_output_0/input_high" type="Const" version="opset1">
			<data element_type="f32" shape="" offset="83952" size="4" />
			<output>
				<port id="0" precision="FP32" />
			</output>
		</layer>
		<layer id="274" name="/model/backbone/stages.1/blocks/blocks.0/aggregation/aggregation.0/lab/Add/fq_output_0/output_low" type="Const" version="opset1">
			<data element_type="f32" shape="" offset="83948" size="4" />
			<output>
				<port id="0" precision="FP32" />
			</output>
		</layer>
		<layer id="275" name="/model/backbone/stages.1/blocks/blocks.0/aggregation/aggregation.0/lab/Add/fq_output_0/output_high" type="Const" version="opset1">
			<data element_type="f32" shape="" offset="83952" size="4" />
			<output>
				<port id="0" precision="FP32" />
			</output>
		</layer>
		<layer id="276" name="/model/backbone/stages.1/blocks/blocks.0/aggregation/aggregation.0/lab/Add/fq_output_0" type="FakeQuantize" version="opset1">
			<data levels="256" auto_broadcast="numpy" />
			<input>
				<port id="0" precision="FP32">
					<dim>1</dim>
					<dim>128</dim>
					<dim>80</dim>
					<dim>80</dim>
				</port>
				<port id="1" precision="FP32" />
				<port id="2" precision="FP32" />
				<port id="3" precision="FP32" />
				<port id="4" precision="FP32" />
			</input>
			<output>
				<port id="5" precision="FP32">
					<dim>1</dim>
					<dim>128</dim>
					<dim>80</dim>
					<dim>80</dim>
				</port>
			</output>
		</layer>
		<layer id="277" name="Constant_556040" type="Const" version="opset1">
			<data element_type="i8" shape="256, 128, 1, 1" offset="83956" size="32768" />
			<output>
				<port id="0" precision="I8">
					<dim>256</dim>
					<dim>128</dim>
					<dim>1</dim>
					<dim>1</dim>
				</port>
			</output>
		</layer>
		<layer id="278" name="Convert_556041" type="Convert" version="opset1">
			<data destination_type="f32" />
			<input>
				<port id="0" precision="I8">
					<dim>256</dim>
					<dim>128</dim>
					<dim>1</dim>
					<dim>1</dim>
				</port>
			</input>
			<output>
				<port id="1" precision="FP32">
					<dim>256</dim>
					<dim>128</dim>
					<dim>1</dim>
					<dim>1</dim>
				</port>
			</output>
		</layer>
		<layer id="279" name="Constant_556042" type="Const" version="opset1">
			<data element_type="f32" shape="256, 1, 1, 1" offset="116724" size="1024" />
			<output>
				<port id="0" precision="FP32">
					<dim>256</dim>
					<dim>1</dim>
					<dim>1</dim>
					<dim>1</dim>
				</port>
			</output>
		</layer>
		<layer id="280" name="/model/backbone/stages.1/blocks/blocks.0/aggregation/aggregation.1/conv/Conv/WithoutBiases/fq_weights_1" type="Multiply" version="opset1">
			<data auto_broadcast="numpy" />
			<input>
				<port id="0" precision="FP32">
					<dim>256</dim>
					<dim>128</dim>
					<dim>1</dim>
					<dim>1</dim>
				</port>
				<port id="1" precision="FP32">
					<dim>256</dim>
					<dim>1</dim>
					<dim>1</dim>
					<dim>1</dim>
				</port>
			</input>
			<output>
				<port id="2" precision="FP32">
					<dim>256</dim>
					<dim>128</dim>
					<dim>1</dim>
					<dim>1</dim>
				</port>
			</output>
		</layer>
		<layer id="281" name="/model/backbone/stages.1/blocks/blocks.0/aggregation/aggregation.1/conv/Conv/WithoutBiases" type="Convolution" version="opset1">
			<data strides="1, 1" dilations="1, 1" pads_begin="0, 0" pads_end="0, 0" auto_pad="explicit" />
			<input>
				<port id="0" precision="FP32">
					<dim>1</dim>
					<dim>128</dim>
					<dim>80</dim>
					<dim>80</dim>
				</port>
				<port id="1" precision="FP32">
					<dim>256</dim>
					<dim>128</dim>
					<dim>1</dim>
					<dim>1</dim>
				</port>
			</input>
			<output>
				<port id="2" precision="FP32">
					<dim>1</dim>
					<dim>256</dim>
					<dim>80</dim>
					<dim>80</dim>
				</port>
			</output>
		</layer>
		<layer id="282" name="Reshape_703" type="Const" version="opset1">
			<data element_type="f32" shape="1, 256, 1, 1" offset="117748" size="1024" />
			<output>
				<port id="0" precision="FP32">
					<dim>1</dim>
					<dim>256</dim>
					<dim>1</dim>
					<dim>1</dim>
				</port>
			</output>
		</layer>
		<layer id="283" name="/model/backbone/stages.1/blocks/blocks.0/aggregation/aggregation.1/conv/Conv" type="Add" version="opset1">
			<data auto_broadcast="numpy" />
			<input>
				<port id="0" precision="FP32">
					<dim>1</dim>
					<dim>256</dim>
					<dim>80</dim>
					<dim>80</dim>
				</port>
				<port id="1" precision="FP32">
					<dim>1</dim>
					<dim>256</dim>
					<dim>1</dim>
					<dim>1</dim>
				</port>
			</input>
			<output>
				<port id="2" precision="FP32" names="/model/backbone/stages.1/blocks/blocks.0/aggregation/aggregation.1/conv/Conv_output_0">
					<dim>1</dim>
					<dim>256</dim>
					<dim>80</dim>
					<dim>80</dim>
				</port>
			</output>
		</layer>
		<layer id="284" name="/model/backbone/stages.1/blocks/blocks.0/aggregation/aggregation.1/act/Relu" type="ReLU" version="opset1">
			<input>
				<port id="0" precision="FP32">
					<dim>1</dim>
					<dim>256</dim>
					<dim>80</dim>
					<dim>80</dim>
				</port>
			</input>
			<output>
				<port id="1" precision="FP32" names="/model/backbone/stages.1/blocks/blocks.0/aggregation/aggregation.1/act/Relu_output_0">
					<dim>1</dim>
					<dim>256</dim>
					<dim>80</dim>
					<dim>80</dim>
				</port>
			</output>
		</layer>
		<layer id="285" name="/model/backbone/stages.1/blocks/blocks.0/aggregation/aggregation.1/lab/Mul" type="Multiply" version="opset1">
			<data auto_broadcast="numpy" />
			<input>
				<port id="0" precision="FP32">
					<dim>1</dim>
					<dim>1</dim>
					<dim>1</dim>
					<dim>1</dim>
				</port>
				<port id="1" precision="FP32">
					<dim>1</dim>
					<dim>256</dim>
					<dim>80</dim>
					<dim>80</dim>
				</port>
			</input>
			<output>
				<port id="2" precision="FP32" names="/model/backbone/stages.1/blocks/blocks.0/aggregation/aggregation.1/lab/Mul_output_0">
					<dim>1</dim>
					<dim>256</dim>
					<dim>80</dim>
					<dim>80</dim>
				</port>
			</output>
		</layer>
		<layer id="286" name="Constant_13585" type="Const" version="opset1">
			<data element_type="f32" shape="1, 1, 1, 1" offset="118772" size="4" />
			<output>
				<port id="0" precision="FP32">
					<dim>1</dim>
					<dim>1</dim>
					<dim>1</dim>
					<dim>1</dim>
				</port>
			</output>
		</layer>
		<layer id="287" name="/model/backbone/stages.1/blocks/blocks.0/aggregation/aggregation.1/lab/Add" type="Add" version="opset1">
			<data auto_broadcast="numpy" />
			<input>
				<port id="0" precision="FP32">
					<dim>1</dim>
					<dim>256</dim>
					<dim>80</dim>
					<dim>80</dim>
				</port>
				<port id="1" precision="FP32">
					<dim>1</dim>
					<dim>1</dim>
					<dim>1</dim>
					<dim>1</dim>
				</port>
			</input>
			<output>
				<port id="2" precision="FP32" names="/model/backbone/stages.1/blocks/blocks.0/aggregation/aggregation.1/lab/Add_output_0">
					<dim>1</dim>
					<dim>256</dim>
					<dim>80</dim>
					<dim>80</dim>
				</port>
			</output>
		</layer>
		<layer id="288" name="/model/backbone/stages.1/blocks/blocks.0/aggregation/aggregation.1/lab/Add/fq_output_0/input_low" type="Const" version="opset1">
			<data element_type="f32" shape="1, 256, 1, 1" offset="118776" size="1024" />
			<output>
				<port id="0" precision="FP32">
					<dim>1</dim>
					<dim>256</dim>
					<dim>1</dim>
					<dim>1</dim>
				</port>
			</output>
		</layer>
		<layer id="289" name="/model/backbone/stages.1/blocks/blocks.0/aggregation/aggregation.1/lab/Add/fq_output_0/input_high" type="Const" version="opset1">
			<data element_type="f32" shape="1, 256, 1, 1" offset="119800" size="1024" />
			<output>
				<port id="0" precision="FP32">
					<dim>1</dim>
					<dim>256</dim>
					<dim>1</dim>
					<dim>1</dim>
				</port>
			</output>
		</layer>
		<layer id="290" name="/model/backbone/stages.1/blocks/blocks.0/aggregation/aggregation.1/lab/Add/fq_output_0/output_low" type="Const" version="opset1">
			<data element_type="f32" shape="1, 256, 1, 1" offset="118776" size="1024" />
			<output>
				<port id="0" precision="FP32">
					<dim>1</dim>
					<dim>256</dim>
					<dim>1</dim>
					<dim>1</dim>
				</port>
			</output>
		</layer>
		<layer id="291" name="/model/backbone/stages.1/blocks/blocks.0/aggregation/aggregation.1/lab/Add/fq_output_0/output_high" type="Const" version="opset1">
			<data element_type="f32" shape="1, 256, 1, 1" offset="119800" size="1024" />
			<output>
				<port id="0" precision="FP32">
					<dim>1</dim>
					<dim>256</dim>
					<dim>1</dim>
					<dim>1</dim>
				</port>
			</output>
		</layer>
		<layer id="292" name="/model/backbone/stages.1/blocks/blocks.0/aggregation/aggregation.1/lab/Add/fq_output_0" type="FakeQuantize" version="opset1">
			<data levels="256" auto_broadcast="numpy" />
			<input>
				<port id="0" precision="FP32">
					<dim>1</dim>
					<dim>256</dim>
					<dim>80</dim>
					<dim>80</dim>
				</port>
				<port id="1" precision="FP32">
					<dim>1</dim>
					<dim>256</dim>
					<dim>1</dim>
					<dim>1</dim>
				</port>
				<port id="2" precision="FP32">
					<dim>1</dim>
					<dim>256</dim>
					<dim>1</dim>
					<dim>1</dim>
				</port>
				<port id="3" precision="FP32">
					<dim>1</dim>
					<dim>256</dim>
					<dim>1</dim>
					<dim>1</dim>
				</port>
				<port id="4" precision="FP32">
					<dim>1</dim>
					<dim>256</dim>
					<dim>1</dim>
					<dim>1</dim>
				</port>
			</input>
			<output>
				<port id="5" precision="FP32">
					<dim>1</dim>
					<dim>256</dim>
					<dim>80</dim>
					<dim>80</dim>
				</port>
			</output>
		</layer>
		<layer id="293" name="Constant_556044" type="Const" version="opset1">
			<data element_type="i8" shape="256, 1, 1, 3, 3" offset="120824" size="2304" />
			<output>
				<port id="0" precision="I8">
					<dim>256</dim>
					<dim>1</dim>
					<dim>1</dim>
					<dim>3</dim>
					<dim>3</dim>
				</port>
			</output>
		</layer>
		<layer id="294" name="Convert_556045" type="Convert" version="opset1">
			<data destination_type="f32" />
			<input>
				<port id="0" precision="I8">
					<dim>256</dim>
					<dim>1</dim>
					<dim>1</dim>
					<dim>3</dim>
					<dim>3</dim>
				</port>
			</input>
			<output>
				<port id="1" precision="FP32">
					<dim>256</dim>
					<dim>1</dim>
					<dim>1</dim>
					<dim>3</dim>
					<dim>3</dim>
				</port>
			</output>
		</layer>
		<layer id="295" name="Constant_556046" type="Const" version="opset1">
			<data element_type="f32" shape="256, 1, 1, 1, 1" offset="123128" size="1024" />
			<output>
				<port id="0" precision="FP32">
					<dim>256</dim>
					<dim>1</dim>
					<dim>1</dim>
					<dim>1</dim>
					<dim>1</dim>
				</port>
			</output>
		</layer>
		<layer id="296" name="/model/backbone/stages.2/downsample/conv/Conv/WithoutBiases/fq_weights_1" type="Multiply" version="opset1">
			<data auto_broadcast="numpy" />
			<input>
				<port id="0" precision="FP32">
					<dim>256</dim>
					<dim>1</dim>
					<dim>1</dim>
					<dim>3</dim>
					<dim>3</dim>
				</port>
				<port id="1" precision="FP32">
					<dim>256</dim>
					<dim>1</dim>
					<dim>1</dim>
					<dim>1</dim>
					<dim>1</dim>
				</port>
			</input>
			<output>
				<port id="2" precision="FP32">
					<dim>256</dim>
					<dim>1</dim>
					<dim>1</dim>
					<dim>3</dim>
					<dim>3</dim>
				</port>
			</output>
		</layer>
		<layer id="297" name="/model/backbone/stages.2/downsample/conv/Conv/WithoutBiases" type="GroupConvolution" version="opset1">
			<data strides="2, 2" pads_begin="1, 1" pads_end="1, 1" dilations="1, 1" auto_pad="explicit" />
			<input>
				<port id="0" precision="FP32">
					<dim>1</dim>
					<dim>256</dim>
					<dim>80</dim>
					<dim>80</dim>
				</port>
				<port id="1" precision="FP32">
					<dim>256</dim>
					<dim>1</dim>
					<dim>1</dim>
					<dim>3</dim>
					<dim>3</dim>
				</port>
			</input>
			<output>
				<port id="2" precision="FP32">
					<dim>1</dim>
					<dim>256</dim>
					<dim>40</dim>
					<dim>40</dim>
				</port>
			</output>
		</layer>
		<layer id="298" name="Reshape_765" type="Const" version="opset1">
			<data element_type="f32" shape="1, 256, 1, 1" offset="124152" size="1024" />
			<output>
				<port id="0" precision="FP32">
					<dim>1</dim>
					<dim>256</dim>
					<dim>1</dim>
					<dim>1</dim>
				</port>
			</output>
		</layer>
		<layer id="299" name="/model/backbone/stages.2/downsample/conv/Conv" type="Add" version="opset1">
			<data auto_broadcast="numpy" />
			<input>
				<port id="0" precision="FP32">
					<dim>1</dim>
					<dim>256</dim>
					<dim>40</dim>
					<dim>40</dim>
				</port>
				<port id="1" precision="FP32">
					<dim>1</dim>
					<dim>256</dim>
					<dim>1</dim>
					<dim>1</dim>
				</port>
			</input>
			<output>
				<port id="2" precision="FP32" names="/model/backbone/stages.2/downsample/conv/Conv_output_0">
					<dim>1</dim>
					<dim>256</dim>
					<dim>40</dim>
					<dim>40</dim>
				</port>
			</output>
		</layer>
		<layer id="300" name="/model/backbone/stages.2/downsample/conv/Conv/fq_output_0/input_low" type="Const" version="opset1">
			<data element_type="f32" shape="" offset="125176" size="4" />
			<output>
				<port id="0" precision="FP32" />
			</output>
		</layer>
		<layer id="301" name="/model/backbone/stages.2/downsample/conv/Conv/fq_output_0/input_high" type="Const" version="opset1">
			<data element_type="f32" shape="" offset="125180" size="4" />
			<output>
				<port id="0" precision="FP32" />
			</output>
		</layer>
		<layer id="302" name="/model/backbone/stages.2/downsample/conv/Conv/fq_output_0/output_low" type="Const" version="opset1">
			<data element_type="f32" shape="" offset="125176" size="4" />
			<output>
				<port id="0" precision="FP32" />
			</output>
		</layer>
		<layer id="303" name="/model/backbone/stages.2/downsample/conv/Conv/fq_output_0/output_high" type="Const" version="opset1">
			<data element_type="f32" shape="" offset="125180" size="4" />
			<output>
				<port id="0" precision="FP32" />
			</output>
		</layer>
		<layer id="304" name="/model/backbone/stages.2/downsample/conv/Conv/fq_output_0" type="FakeQuantize" version="opset1">
			<data levels="256" auto_broadcast="numpy" />
			<input>
				<port id="0" precision="FP32">
					<dim>1</dim>
					<dim>256</dim>
					<dim>40</dim>
					<dim>40</dim>
				</port>
				<port id="1" precision="FP32" />
				<port id="2" precision="FP32" />
				<port id="3" precision="FP32" />
				<port id="4" precision="FP32" />
			</input>
			<output>
				<port id="5" precision="FP32">
					<dim>1</dim>
					<dim>256</dim>
					<dim>40</dim>
					<dim>40</dim>
				</port>
			</output>
		</layer>
		<layer id="305" name="Constant_13586" type="Const" version="opset1">
			<data element_type="f32" shape="1, 1, 1, 1" offset="125184" size="4" />
			<output>
				<port id="0" precision="FP32">
					<dim>1</dim>
					<dim>1</dim>
					<dim>1</dim>
					<dim>1</dim>
				</port>
			</output>
		</layer>
		<layer id="306" name="Constant_556048" type="Const" version="opset1">
			<data element_type="i8" shape="64, 256, 1, 1" offset="125188" size="16384" />
			<output>
				<port id="0" precision="I8">
					<dim>64</dim>
					<dim>256</dim>
					<dim>1</dim>
					<dim>1</dim>
				</port>
			</output>
		</layer>
		<layer id="307" name="Convert_556049" type="Convert" version="opset1">
			<data destination_type="f32" />
			<input>
				<port id="0" precision="I8">
					<dim>64</dim>
					<dim>256</dim>
					<dim>1</dim>
					<dim>1</dim>
				</port>
			</input>
			<output>
				<port id="1" precision="FP32">
					<dim>64</dim>
					<dim>256</dim>
					<dim>1</dim>
					<dim>1</dim>
				</port>
			</output>
		</layer>
		<layer id="308" name="Constant_556050" type="Const" version="opset1">
			<data element_type="f32" shape="64, 1, 1, 1" offset="141572" size="256" />
			<output>
				<port id="0" precision="FP32">
					<dim>64</dim>
					<dim>1</dim>
					<dim>1</dim>
					<dim>1</dim>
				</port>
			</output>
		</layer>
		<layer id="309" name="/model/backbone/stages.2/blocks/blocks.0/layers.0/conv1/conv/Conv/WithoutBiases/fq_weights_1" type="Multiply" version="opset1">
			<data auto_broadcast="numpy" />
			<input>
				<port id="0" precision="FP32">
					<dim>64</dim>
					<dim>256</dim>
					<dim>1</dim>
					<dim>1</dim>
				</port>
				<port id="1" precision="FP32">
					<dim>64</dim>
					<dim>1</dim>
					<dim>1</dim>
					<dim>1</dim>
				</port>
			</input>
			<output>
				<port id="2" precision="FP32">
					<dim>64</dim>
					<dim>256</dim>
					<dim>1</dim>
					<dim>1</dim>
				</port>
			</output>
		</layer>
		<layer id="310" name="/model/backbone/stages.2/blocks/blocks.0/layers.0/conv1/conv/Conv/WithoutBiases" type="Convolution" version="opset1">
			<data strides="1, 1" dilations="1, 1" pads_begin="0, 0" pads_end="0, 0" auto_pad="explicit" />
			<input>
				<port id="0" precision="FP32">
					<dim>1</dim>
					<dim>256</dim>
					<dim>40</dim>
					<dim>40</dim>
				</port>
				<port id="1" precision="FP32">
					<dim>64</dim>
					<dim>256</dim>
					<dim>1</dim>
					<dim>1</dim>
				</port>
			</input>
			<output>
				<port id="2" precision="FP32">
					<dim>1</dim>
					<dim>64</dim>
					<dim>40</dim>
					<dim>40</dim>
				</port>
			</output>
		</layer>
		<layer id="311" name="Reshape_778" type="Const" version="opset1">
			<data element_type="f32" shape="1, 64, 1, 1" offset="141828" size="256" />
			<output>
				<port id="0" precision="FP32">
					<dim>1</dim>
					<dim>64</dim>
					<dim>1</dim>
					<dim>1</dim>
				</port>
			</output>
		</layer>
		<layer id="312" name="/model/backbone/stages.2/blocks/blocks.0/layers.0/conv1/conv/Conv" type="Add" version="opset1">
			<data auto_broadcast="numpy" />
			<input>
				<port id="0" precision="FP32">
					<dim>1</dim>
					<dim>64</dim>
					<dim>40</dim>
					<dim>40</dim>
				</port>
				<port id="1" precision="FP32">
					<dim>1</dim>
					<dim>64</dim>
					<dim>1</dim>
					<dim>1</dim>
				</port>
			</input>
			<output>
				<port id="2" precision="FP32" names="/model/backbone/stages.2/blocks/blocks.0/layers.0/conv1/conv/Conv_output_0">
					<dim>1</dim>
					<dim>64</dim>
					<dim>40</dim>
					<dim>40</dim>
				</port>
			</output>
		</layer>
		<layer id="313" name="/model/backbone/stages.2/blocks/blocks.0/layers.0/conv1/conv/Conv/fq_output_0/input_low" type="Const" version="opset1">
			<data element_type="f32" shape="1, 64, 1, 1" offset="142084" size="256" />
			<output>
				<port id="0" precision="FP32">
					<dim>1</dim>
					<dim>64</dim>
					<dim>1</dim>
					<dim>1</dim>
				</port>
			</output>
		</layer>
		<layer id="314" name="/model/backbone/stages.2/blocks/blocks.0/layers.0/conv1/conv/Conv/fq_output_0/input_high" type="Const" version="opset1">
			<data element_type="f32" shape="1, 64, 1, 1" offset="142340" size="256" />
			<output>
				<port id="0" precision="FP32">
					<dim>1</dim>
					<dim>64</dim>
					<dim>1</dim>
					<dim>1</dim>
				</port>
			</output>
		</layer>
		<layer id="315" name="/model/backbone/stages.2/blocks/blocks.0/layers.0/conv1/conv/Conv/fq_output_0/output_low" type="Const" version="opset1">
			<data element_type="f32" shape="1, 64, 1, 1" offset="142084" size="256" />
			<output>
				<port id="0" precision="FP32">
					<dim>1</dim>
					<dim>64</dim>
					<dim>1</dim>
					<dim>1</dim>
				</port>
			</output>
		</layer>
		<layer id="316" name="/model/backbone/stages.2/blocks/blocks.0/layers.0/conv1/conv/Conv/fq_output_0/output_high" type="Const" version="opset1">
			<data element_type="f32" shape="1, 64, 1, 1" offset="142340" size="256" />
			<output>
				<port id="0" precision="FP32">
					<dim>1</dim>
					<dim>64</dim>
					<dim>1</dim>
					<dim>1</dim>
				</port>
			</output>
		</layer>
		<layer id="317" name="/model/backbone/stages.2/blocks/blocks.0/layers.0/conv1/conv/Conv/fq_output_0" type="FakeQuantize" version="opset1">
			<data levels="256" auto_broadcast="numpy" />
			<input>
				<port id="0" precision="FP32">
					<dim>1</dim>
					<dim>64</dim>
					<dim>40</dim>
					<dim>40</dim>
				</port>
				<port id="1" precision="FP32">
					<dim>1</dim>
					<dim>64</dim>
					<dim>1</dim>
					<dim>1</dim>
				</port>
				<port id="2" precision="FP32">
					<dim>1</dim>
					<dim>64</dim>
					<dim>1</dim>
					<dim>1</dim>
				</port>
				<port id="3" precision="FP32">
					<dim>1</dim>
					<dim>64</dim>
					<dim>1</dim>
					<dim>1</dim>
				</port>
				<port id="4" precision="FP32">
					<dim>1</dim>
					<dim>64</dim>
					<dim>1</dim>
					<dim>1</dim>
				</port>
			</input>
			<output>
				<port id="5" precision="FP32">
					<dim>1</dim>
					<dim>64</dim>
					<dim>40</dim>
					<dim>40</dim>
				</port>
			</output>
		</layer>
		<layer id="318" name="Constant_556052" type="Const" version="opset1">
			<data element_type="i8" shape="64, 1, 1, 5, 5" offset="142596" size="1600" />
			<output>
				<port id="0" precision="I8">
					<dim>64</dim>
					<dim>1</dim>
					<dim>1</dim>
					<dim>5</dim>
					<dim>5</dim>
				</port>
			</output>
		</layer>
		<layer id="319" name="Convert_556053" type="Convert" version="opset1">
			<data destination_type="f32" />
			<input>
				<port id="0" precision="I8">
					<dim>64</dim>
					<dim>1</dim>
					<dim>1</dim>
					<dim>5</dim>
					<dim>5</dim>
				</port>
			</input>
			<output>
				<port id="1" precision="FP32">
					<dim>64</dim>
					<dim>1</dim>
					<dim>1</dim>
					<dim>5</dim>
					<dim>5</dim>
				</port>
			</output>
		</layer>
		<layer id="320" name="Constant_556054" type="Const" version="opset1">
			<data element_type="f32" shape="64, 1, 1, 1, 1" offset="144196" size="256" />
			<output>
				<port id="0" precision="FP32">
					<dim>64</dim>
					<dim>1</dim>
					<dim>1</dim>
					<dim>1</dim>
					<dim>1</dim>
				</port>
			</output>
		</layer>
		<layer id="321" name="/model/backbone/stages.2/blocks/blocks.0/layers.0/conv2/conv/Conv/WithoutBiases/fq_weights_1" type="Multiply" version="opset1">
			<data auto_broadcast="numpy" />
			<input>
				<port id="0" precision="FP32">
					<dim>64</dim>
					<dim>1</dim>
					<dim>1</dim>
					<dim>5</dim>
					<dim>5</dim>
				</port>
				<port id="1" precision="FP32">
					<dim>64</dim>
					<dim>1</dim>
					<dim>1</dim>
					<dim>1</dim>
					<dim>1</dim>
				</port>
			</input>
			<output>
				<port id="2" precision="FP32">
					<dim>64</dim>
					<dim>1</dim>
					<dim>1</dim>
					<dim>5</dim>
					<dim>5</dim>
				</port>
			</output>
		</layer>
		<layer id="322" name="/model/backbone/stages.2/blocks/blocks.0/layers.0/conv2/conv/Conv/WithoutBiases" type="GroupConvolution" version="opset1">
			<data strides="1, 1" pads_begin="2, 2" pads_end="2, 2" dilations="1, 1" auto_pad="explicit" />
			<input>
				<port id="0" precision="FP32">
					<dim>1</dim>
					<dim>64</dim>
					<dim>40</dim>
					<dim>40</dim>
				</port>
				<port id="1" precision="FP32">
					<dim>64</dim>
					<dim>1</dim>
					<dim>1</dim>
					<dim>5</dim>
					<dim>5</dim>
				</port>
			</input>
			<output>
				<port id="2" precision="FP32">
					<dim>1</dim>
					<dim>64</dim>
					<dim>40</dim>
					<dim>40</dim>
				</port>
			</output>
		</layer>
		<layer id="323" name="Reshape_837" type="Const" version="opset1">
			<data element_type="f32" shape="1, 64, 1, 1" offset="144452" size="256" />
			<output>
				<port id="0" precision="FP32">
					<dim>1</dim>
					<dim>64</dim>
					<dim>1</dim>
					<dim>1</dim>
				</port>
			</output>
		</layer>
		<layer id="324" name="/model/backbone/stages.2/blocks/blocks.0/layers.0/conv2/conv/Conv" type="Add" version="opset1">
			<data auto_broadcast="numpy" />
			<input>
				<port id="0" precision="FP32">
					<dim>1</dim>
					<dim>64</dim>
					<dim>40</dim>
					<dim>40</dim>
				</port>
				<port id="1" precision="FP32">
					<dim>1</dim>
					<dim>64</dim>
					<dim>1</dim>
					<dim>1</dim>
				</port>
			</input>
			<output>
				<port id="2" precision="FP32" names="/model/backbone/stages.2/blocks/blocks.0/layers.0/conv2/conv/Conv_output_0">
					<dim>1</dim>
					<dim>64</dim>
					<dim>40</dim>
					<dim>40</dim>
				</port>
			</output>
		</layer>
		<layer id="325" name="/model/backbone/stages.2/blocks/blocks.0/layers.0/conv2/act/Relu" type="ReLU" version="opset1">
			<input>
				<port id="0" precision="FP32">
					<dim>1</dim>
					<dim>64</dim>
					<dim>40</dim>
					<dim>40</dim>
				</port>
			</input>
			<output>
				<port id="1" precision="FP32" names="/model/backbone/stages.2/blocks/blocks.0/layers.0/conv2/act/Relu_output_0">
					<dim>1</dim>
					<dim>64</dim>
					<dim>40</dim>
					<dim>40</dim>
				</port>
			</output>
		</layer>
		<layer id="326" name="/model/backbone/stages.2/blocks/blocks.0/layers.0/conv2/lab/Mul" type="Multiply" version="opset1">
			<data auto_broadcast="numpy" />
			<input>
				<port id="0" precision="FP32">
					<dim>1</dim>
					<dim>1</dim>
					<dim>1</dim>
					<dim>1</dim>
				</port>
				<port id="1" precision="FP32">
					<dim>1</dim>
					<dim>64</dim>
					<dim>40</dim>
					<dim>40</dim>
				</port>
			</input>
			<output>
				<port id="2" precision="FP32" names="/model/backbone/stages.2/blocks/blocks.0/layers.0/conv2/lab/Mul_output_0">
					<dim>1</dim>
					<dim>64</dim>
					<dim>40</dim>
					<dim>40</dim>
				</port>
			</output>
		</layer>
		<layer id="327" name="Constant_13587" type="Const" version="opset1">
			<data element_type="f32" shape="1, 1, 1, 1" offset="144708" size="4" />
			<output>
				<port id="0" precision="FP32">
					<dim>1</dim>
					<dim>1</dim>
					<dim>1</dim>
					<dim>1</dim>
				</port>
			</output>
		</layer>
		<layer id="328" name="/model/backbone/stages.2/blocks/blocks.0/layers.0/conv2/lab/Add" type="Add" version="opset1">
			<data auto_broadcast="numpy" />
			<input>
				<port id="0" precision="FP32">
					<dim>1</dim>
					<dim>64</dim>
					<dim>40</dim>
					<dim>40</dim>
				</port>
				<port id="1" precision="FP32">
					<dim>1</dim>
					<dim>1</dim>
					<dim>1</dim>
					<dim>1</dim>
				</port>
			</input>
			<output>
				<port id="2" precision="FP32" names="/model/backbone/stages.2/blocks/blocks.0/layers.0/conv2/lab/Add_output_0">
					<dim>1</dim>
					<dim>64</dim>
					<dim>40</dim>
					<dim>40</dim>
				</port>
			</output>
		</layer>
		<layer id="329" name="/model/backbone/stages.2/blocks/blocks.0/layers.0/conv2/lab/Add/fq_output_0/input_low" type="Const" version="opset1">
			<data element_type="f32" shape="" offset="125176" size="4" />
			<output>
				<port id="0" precision="FP32" />
			</output>
		</layer>
		<layer id="330" name="/model/backbone/stages.2/blocks/blocks.0/layers.0/conv2/lab/Add/fq_output_0/input_high" type="Const" version="opset1">
			<data element_type="f32" shape="" offset="125180" size="4" />
			<output>
				<port id="0" precision="FP32" />
			</output>
		</layer>
		<layer id="331" name="/model/backbone/stages.2/blocks/blocks.0/layers.0/conv2/lab/Add/fq_output_0/output_low" type="Const" version="opset1">
			<data element_type="f32" shape="" offset="125176" size="4" />
			<output>
				<port id="0" precision="FP32" />
			</output>
		</layer>
		<layer id="332" name="/model/backbone/stages.2/blocks/blocks.0/layers.0/conv2/lab/Add/fq_output_0/output_high" type="Const" version="opset1">
			<data element_type="f32" shape="" offset="125180" size="4" />
			<output>
				<port id="0" precision="FP32" />
			</output>
		</layer>
		<layer id="333" name="/model/backbone/stages.2/blocks/blocks.0/layers.0/conv2/lab/Add/fq_output_0" type="FakeQuantize" version="opset1">
			<data levels="256" auto_broadcast="numpy" />
			<input>
				<port id="0" precision="FP32">
					<dim>1</dim>
					<dim>64</dim>
					<dim>40</dim>
					<dim>40</dim>
				</port>
				<port id="1" precision="FP32" />
				<port id="2" precision="FP32" />
				<port id="3" precision="FP32" />
				<port id="4" precision="FP32" />
			</input>
			<output>
				<port id="5" precision="FP32">
					<dim>1</dim>
					<dim>64</dim>
					<dim>40</dim>
					<dim>40</dim>
				</port>
			</output>
		</layer>
		<layer id="334" name="Constant_13588" type="Const" version="opset1">
			<data element_type="f32" shape="1, 1, 1, 1" offset="144712" size="4" />
			<output>
				<port id="0" precision="FP32">
					<dim>1</dim>
					<dim>1</dim>
					<dim>1</dim>
					<dim>1</dim>
				</port>
			</output>
		</layer>
		<layer id="335" name="Constant_556056" type="Const" version="opset1">
			<data element_type="i8" shape="64, 64, 1, 1" offset="144716" size="4096" />
			<output>
				<port id="0" precision="I8">
					<dim>64</dim>
					<dim>64</dim>
					<dim>1</dim>
					<dim>1</dim>
				</port>
			</output>
		</layer>
		<layer id="336" name="Convert_556057" type="Convert" version="opset1">
			<data destination_type="f32" />
			<input>
				<port id="0" precision="I8">
					<dim>64</dim>
					<dim>64</dim>
					<dim>1</dim>
					<dim>1</dim>
				</port>
			</input>
			<output>
				<port id="1" precision="FP32">
					<dim>64</dim>
					<dim>64</dim>
					<dim>1</dim>
					<dim>1</dim>
				</port>
			</output>
		</layer>
		<layer id="337" name="Constant_556058" type="Const" version="opset1">
			<data element_type="f32" shape="64, 1, 1, 1" offset="148812" size="256" />
			<output>
				<port id="0" precision="FP32">
					<dim>64</dim>
					<dim>1</dim>
					<dim>1</dim>
					<dim>1</dim>
				</port>
			</output>
		</layer>
		<layer id="338" name="/model/backbone/stages.2/blocks/blocks.0/layers.1/conv1/conv/Conv/WithoutBiases/fq_weights_1" type="Multiply" version="opset1">
			<data auto_broadcast="numpy" />
			<input>
				<port id="0" precision="FP32">
					<dim>64</dim>
					<dim>64</dim>
					<dim>1</dim>
					<dim>1</dim>
				</port>
				<port id="1" precision="FP32">
					<dim>64</dim>
					<dim>1</dim>
					<dim>1</dim>
					<dim>1</dim>
				</port>
			</input>
			<output>
				<port id="2" precision="FP32">
					<dim>64</dim>
					<dim>64</dim>
					<dim>1</dim>
					<dim>1</dim>
				</port>
			</output>
		</layer>
		<layer id="339" name="/model/backbone/stages.2/blocks/blocks.0/layers.1/conv1/conv/Conv/WithoutBiases" type="Convolution" version="opset1">
			<data strides="1, 1" dilations="1, 1" pads_begin="0, 0" pads_end="0, 0" auto_pad="explicit" />
			<input>
				<port id="0" precision="FP32">
					<dim>1</dim>
					<dim>64</dim>
					<dim>40</dim>
					<dim>40</dim>
				</port>
				<port id="1" precision="FP32">
					<dim>64</dim>
					<dim>64</dim>
					<dim>1</dim>
					<dim>1</dim>
				</port>
			</input>
			<output>
				<port id="2" precision="FP32">
					<dim>1</dim>
					<dim>64</dim>
					<dim>40</dim>
					<dim>40</dim>
				</port>
			</output>
		</layer>
		<layer id="340" name="Reshape_853" type="Const" version="opset1">
			<data element_type="f32" shape="1, 64, 1, 1" offset="149068" size="256" />
			<output>
				<port id="0" precision="FP32">
					<dim>1</dim>
					<dim>64</dim>
					<dim>1</dim>
					<dim>1</dim>
				</port>
			</output>
		</layer>
		<layer id="341" name="/model/backbone/stages.2/blocks/blocks.0/layers.1/conv1/conv/Conv" type="Add" version="opset1">
			<data auto_broadcast="numpy" />
			<input>
				<port id="0" precision="FP32">
					<dim>1</dim>
					<dim>64</dim>
					<dim>40</dim>
					<dim>40</dim>
				</port>
				<port id="1" precision="FP32">
					<dim>1</dim>
					<dim>64</dim>
					<dim>1</dim>
					<dim>1</dim>
				</port>
			</input>
			<output>
				<port id="2" precision="FP32" names="/model/backbone/stages.2/blocks/blocks.0/layers.1/conv1/conv/Conv_output_0">
					<dim>1</dim>
					<dim>64</dim>
					<dim>40</dim>
					<dim>40</dim>
				</port>
			</output>
		</layer>
		<layer id="342" name="/model/backbone/stages.2/blocks/blocks.0/layers.1/conv1/conv/Conv/fq_output_0/input_low" type="Const" version="opset1">
			<data element_type="f32" shape="1, 64, 1, 1" offset="149324" size="256" />
			<output>
				<port id="0" precision="FP32">
					<dim>1</dim>
					<dim>64</dim>
					<dim>1</dim>
					<dim>1</dim>
				</port>
			</output>
		</layer>
		<layer id="343" name="/model/backbone/stages.2/blocks/blocks.0/layers.1/conv1/conv/Conv/fq_output_0/input_high" type="Const" version="opset1">
			<data element_type="f32" shape="1, 64, 1, 1" offset="149580" size="256" />
			<output>
				<port id="0" precision="FP32">
					<dim>1</dim>
					<dim>64</dim>
					<dim>1</dim>
					<dim>1</dim>
				</port>
			</output>
		</layer>
		<layer id="344" name="/model/backbone/stages.2/blocks/blocks.0/layers.1/conv1/conv/Conv/fq_output_0/output_low" type="Const" version="opset1">
			<data element_type="f32" shape="1, 64, 1, 1" offset="149324" size="256" />
			<output>
				<port id="0" precision="FP32">
					<dim>1</dim>
					<dim>64</dim>
					<dim>1</dim>
					<dim>1</dim>
				</port>
			</output>
		</layer>
		<layer id="345" name="/model/backbone/stages.2/blocks/blocks.0/layers.1/conv1/conv/Conv/fq_output_0/output_high" type="Const" version="opset1">
			<data element_type="f32" shape="1, 64, 1, 1" offset="149580" size="256" />
			<output>
				<port id="0" precision="FP32">
					<dim>1</dim>
					<dim>64</dim>
					<dim>1</dim>
					<dim>1</dim>
				</port>
			</output>
		</layer>
		<layer id="346" name="/model/backbone/stages.2/blocks/blocks.0/layers.1/conv1/conv/Conv/fq_output_0" type="FakeQuantize" version="opset1">
			<data levels="256" auto_broadcast="numpy" />
			<input>
				<port id="0" precision="FP32">
					<dim>1</dim>
					<dim>64</dim>
					<dim>40</dim>
					<dim>40</dim>
				</port>
				<port id="1" precision="FP32">
					<dim>1</dim>
					<dim>64</dim>
					<dim>1</dim>
					<dim>1</dim>
				</port>
				<port id="2" precision="FP32">
					<dim>1</dim>
					<dim>64</dim>
					<dim>1</dim>
					<dim>1</dim>
				</port>
				<port id="3" precision="FP32">
					<dim>1</dim>
					<dim>64</dim>
					<dim>1</dim>
					<dim>1</dim>
				</port>
				<port id="4" precision="FP32">
					<dim>1</dim>
					<dim>64</dim>
					<dim>1</dim>
					<dim>1</dim>
				</port>
			</input>
…
		<edge from-layer="2472" from-port="5" to-layer="2478" to-port="0" />
		<edge from-layer="2473" from-port="0" to-layer="2477" to-port="1" />
		<edge from-layer="2474" from-port="0" to-layer="2477" to-port="2" />
		<edge from-layer="2475" from-port="0" to-layer="2477" to-port="3" />
		<edge from-layer="2476" from-port="0" to-layer="2477" to-port="4" />
		<edge from-layer="2477" from-port="5" to-layer="2478" to-port="1" />
		<edge from-layer="2478" from-port="2" to-layer="2483" to-port="0" />
		<edge from-layer="2479" from-port="0" to-layer="2483" to-port="1" />
		<edge from-layer="2480" from-port="0" to-layer="2483" to-port="2" />
		<edge from-layer="2481" from-port="0" to-layer="2483" to-port="3" />
		<edge from-layer="2482" from-port="0" to-layer="2483" to-port="4" />
		<edge from-layer="2483" from-port="5" to-layer="2484" to-port="1" />
		<edge from-layer="2484" from-port="2" to-layer="2489" to-port="0" />
		<edge from-layer="2485" from-port="0" to-layer="2489" to-port="1" />
		<edge from-layer="2486" from-port="0" to-layer="2489" to-port="2" />
		<edge from-layer="2487" from-port="0" to-layer="2489" to-port="3" />
		<edge from-layer="2488" from-port="0" to-layer="2489" to-port="4" />
		<edge from-layer="2489" from-port="5" to-layer="2490" to-port="0" />
		<edge from-layer="2490" from-port="2" to-layer="2491" to-port="3" />
		<edge from-layer="2491" from-port="4" to-layer="2493" to-port="0" />
		<edge from-layer="2492" from-port="0" to-layer="2493" to-port="1" />
		<edge from-layer="2493" from-port="3" to-layer="2494" to-port="0" />
		<edge from-layer="2493" from-port="5" to-layer="2495" to-port="0" />
		<edge from-layer="2493" from-port="4" to-layer="2500" to-port="0" />
		<edge from-layer="2493" from-port="6" to-layer="2501" to-port="0" />
		<edge from-layer="2494" from-port="2" to-layer="2506" to-port="1" />
		<edge from-layer="2494" from-port="2" to-layer="2496" to-port="0" />
		<edge from-layer="2495" from-port="2" to-layer="2506" to-port="0" />
		<edge from-layer="2495" from-port="2" to-layer="2496" to-port="1" />
		<edge from-layer="2496" from-port="2" to-layer="2498" to-port="0" />
		<edge from-layer="2497" from-port="0" to-layer="2498" to-port="1" />
		<edge from-layer="2498" from-port="2" to-layer="2499" to-port="0" />
		<edge from-layer="2499" from-port="2" to-layer="2510" to-port="0" />
		<edge from-layer="2500" from-port="2" to-layer="2508" to-port="1" />
		<edge from-layer="2500" from-port="2" to-layer="2502" to-port="0" />
		<edge from-layer="2501" from-port="2" to-layer="2508" to-port="0" />
		<edge from-layer="2501" from-port="2" to-layer="2502" to-port="1" />
		<edge from-layer="2502" from-port="2" to-layer="2504" to-port="0" />
		<edge from-layer="2503" from-port="0" to-layer="2504" to-port="1" />
		<edge from-layer="2504" from-port="2" to-layer="2505" to-port="0" />
		<edge from-layer="2505" from-port="2" to-layer="2510" to-port="1" />
		<edge from-layer="2506" from-port="2" to-layer="2507" to-port="0" />
		<edge from-layer="2507" from-port="2" to-layer="2510" to-port="2" />
		<edge from-layer="2508" from-port="2" to-layer="2509" to-port="0" />
		<edge from-layer="2509" from-port="2" to-layer="2510" to-port="3" />
		<edge from-layer="2510" from-port="4" to-layer="2650" to-port="0" />
		<edge from-layer="2510" from-port="4" to-layer="2515" to-port="0" />
		<edge from-layer="2511" from-port="0" to-layer="2515" to-port="1" />
		<edge from-layer="2512" from-port="0" to-layer="2515" to-port="2" />
		<edge from-layer="2513" from-port="0" to-layer="2515" to-port="3" />
		<edge from-layer="2514" from-port="0" to-layer="2515" to-port="4" />
		<edge from-layer="2515" from-port="5" to-layer="2520" to-port="0" />
		<edge from-layer="2516" from-port="0" to-layer="2517" to-port="0" />
		<edge from-layer="2517" from-port="1" to-layer="2519" to-port="0" />
		<edge from-layer="2518" from-port="0" to-layer="2519" to-port="1" />
		<edge from-layer="2519" from-port="2" to-layer="2520" to-port="1" />
		<edge from-layer="2520" from-port="2" to-layer="2521" to-port="1" />
		<edge from-layer="2521" from-port="2" to-layer="2522" to-port="0" />
		<edge from-layer="2522" from-port="1" to-layer="2527" to-port="0" />
		<edge from-layer="2523" from-port="0" to-layer="2527" to-port="1" />
		<edge from-layer="2524" from-port="0" to-layer="2527" to-port="2" />
		<edge from-layer="2525" from-port="0" to-layer="2527" to-port="3" />
		<edge from-layer="2526" from-port="0" to-layer="2527" to-port="4" />
		<edge from-layer="2527" from-port="5" to-layer="2532" to-port="0" />
		<edge from-layer="2528" from-port="0" to-layer="2529" to-port="0" />
		<edge from-layer="2529" from-port="1" to-layer="2531" to-port="0" />
		<edge from-layer="2530" from-port="0" to-layer="2531" to-port="1" />
		<edge from-layer="2531" from-port="2" to-layer="2532" to-port="1" />
		<edge from-layer="2532" from-port="2" to-layer="2533" to-port="1" />
		<edge from-layer="2533" from-port="2" to-layer="2534" to-port="0" />
		<edge from-layer="2534" from-port="1" to-layer="2539" to-port="0" />
		<edge from-layer="2535" from-port="0" to-layer="2539" to-port="1" />
		<edge from-layer="2536" from-port="0" to-layer="2539" to-port="2" />
		<edge from-layer="2537" from-port="0" to-layer="2539" to-port="3" />
		<edge from-layer="2538" from-port="0" to-layer="2539" to-port="4" />
		<edge from-layer="2539" from-port="5" to-layer="2658" to-port="1" />
		<edge from-layer="2539" from-port="5" to-layer="2540" to-port="1" />
		<edge from-layer="2540" from-port="2" to-layer="2545" to-port="0" />
		<edge from-layer="2541" from-port="0" to-layer="2545" to-port="1" />
		<edge from-layer="2542" from-port="0" to-layer="2545" to-port="2" />
		<edge from-layer="2543" from-port="0" to-layer="2545" to-port="3" />
		<edge from-layer="2544" from-port="0" to-layer="2545" to-port="4" />
		<edge from-layer="2545" from-port="5" to-layer="2547" to-port="0" />
		<edge from-layer="2546" from-port="0" to-layer="2547" to-port="1" />
		<edge from-layer="2547" from-port="2" to-layer="2552" to-port="0" />
		<edge from-layer="2547" from-port="2" to-layer="2574" to-port="0" />
		<edge from-layer="2548" from-port="0" to-layer="2549" to-port="0" />
		<edge from-layer="2549" from-port="1" to-layer="2551" to-port="0" />
		<edge from-layer="2550" from-port="0" to-layer="2551" to-port="1" />
		<edge from-layer="2551" from-port="2" to-layer="2552" to-port="1" />
		<edge from-layer="2552" from-port="2" to-layer="2553" to-port="1" />
		<edge from-layer="2553" from-port="2" to-layer="2558" to-port="0" />
		<edge from-layer="2554" from-port="0" to-layer="2558" to-port="1" />
		<edge from-layer="2555" from-port="0" to-layer="2558" to-port="2" />
		<edge from-layer="2556" from-port="0" to-layer="2558" to-port="3" />
		<edge from-layer="2557" from-port="0" to-layer="2558" to-port="4" />
		<edge from-layer="2558" from-port="5" to-layer="2559" to-port="0" />
		<edge from-layer="2559" from-port="2" to-layer="2561" to-port="0" />
		<edge from-layer="2560" from-port="0" to-layer="2561" to-port="1" />
		<edge from-layer="2561" from-port="2" to-layer="2563" to-port="0" />
		<edge from-layer="2562" from-port="0" to-layer="2563" to-port="1" />
		<edge from-layer="2563" from-port="2" to-layer="2568" to-port="0" />
		<edge from-layer="2564" from-port="0" to-layer="2568" to-port="1" />
		<edge from-layer="2565" from-port="0" to-layer="2568" to-port="2" />
		<edge from-layer="2566" from-port="0" to-layer="2568" to-port="3" />
		<edge from-layer="2567" from-port="0" to-layer="2568" to-port="4" />
		<edge from-layer="2568" from-port="5" to-layer="2584" to-port="0" />
		<edge from-layer="2569" from-port="0" to-layer="2575" to-port="0" />
		<edge from-layer="2570" from-port="0" to-layer="2571" to-port="0" />
		<edge from-layer="2571" from-port="1" to-layer="2573" to-port="0" />
		<edge from-layer="2572" from-port="0" to-layer="2573" to-port="1" />
		<edge from-layer="2573" from-port="2" to-layer="2574" to-port="1" />
		<edge from-layer="2574" from-port="2" to-layer="2575" to-port="1" />
		<edge from-layer="2575" from-port="2" to-layer="2580" to-port="0" />
		<edge from-layer="2576" from-port="0" to-layer="2580" to-port="1" />
		<edge from-layer="2577" from-port="0" to-layer="2580" to-port="2" />
		<edge from-layer="2578" from-port="0" to-layer="2580" to-port="3" />
		<edge from-layer="2579" from-port="0" to-layer="2580" to-port="4" />
		<edge from-layer="2580" from-port="5" to-layer="2581" to-port="0" />
		<edge from-layer="2581" from-port="2" to-layer="2583" to-port="0" />
		<edge from-layer="2582" from-port="0" to-layer="2583" to-port="1" />
		<edge from-layer="2583" from-port="2" to-layer="2584" to-port="1" />
		<edge from-layer="2584" from-port="2" to-layer="2585" to-port="0" />
		<edge from-layer="2585" from-port="1" to-layer="2590" to-port="0" />
		<edge from-layer="2586" from-port="0" to-layer="2590" to-port="1" />
		<edge from-layer="2587" from-port="0" to-layer="2590" to-port="2" />
		<edge from-layer="2588" from-port="0" to-layer="2590" to-port="3" />
		<edge from-layer="2589" from-port="0" to-layer="2590" to-port="4" />
		<edge from-layer="2590" from-port="5" to-layer="2608" to-port="0" />
		<edge from-layer="2591" from-port="0" to-layer="2599" to-port="0" />
		<edge from-layer="2592" from-port="0" to-layer="2593" to-port="1" />
		<edge from-layer="2593" from-port="2" to-layer="2598" to-port="0" />
		<edge from-layer="2594" from-port="0" to-layer="2595" to-port="0" />
		<edge from-layer="2595" from-port="1" to-layer="2597" to-port="0" />
		<edge from-layer="2596" from-port="0" to-layer="2597" to-port="1" />
		<edge from-layer="2597" from-port="2" to-layer="2598" to-port="1" />
		<edge from-layer="2598" from-port="2" to-layer="2599" to-port="1" />
		<edge from-layer="2599" from-port="2" to-layer="2604" to-port="0" />
		<edge from-layer="2600" from-port="0" to-layer="2604" to-port="1" />
		<edge from-layer="2601" from-port="0" to-layer="2604" to-port="2" />
		<edge from-layer="2602" from-port="0" to-layer="2604" to-port="3" />
		<edge from-layer="2603" from-port="0" to-layer="2604" to-port="4" />
		<edge from-layer="2604" from-port="5" to-layer="2605" to-port="0" />
		<edge from-layer="2605" from-port="2" to-layer="2607" to-port="0" />
		<edge from-layer="2606" from-port="0" to-layer="2607" to-port="1" />
		<edge from-layer="2607" from-port="2" to-layer="2608" to-port="1" />
		<edge from-layer="2608" from-port="2" to-layer="2613" to-port="0" />
		<edge from-layer="2609" from-port="0" to-layer="2613" to-port="1" />
		<edge from-layer="2610" from-port="0" to-layer="2613" to-port="2" />
		<edge from-layer="2611" from-port="0" to-layer="2613" to-port="3" />
		<edge from-layer="2612" from-port="0" to-layer="2613" to-port="4" />
		<edge from-layer="2613" from-port="5" to-layer="2615" to-port="0" />
		<edge from-layer="2614" from-port="0" to-layer="2615" to-port="1" />
		<edge from-layer="2615" from-port="2" to-layer="2617" to-port="0" />
		<edge from-layer="2616" from-port="0" to-layer="2617" to-port="1" />
		<edge from-layer="2617" from-port="2" to-layer="2622" to-port="0" />
		<edge from-layer="2618" from-port="0" to-layer="2619" to-port="0" />
		<edge from-layer="2619" from-port="1" to-layer="2621" to-port="0" />
		<edge from-layer="2620" from-port="0" to-layer="2621" to-port="1" />
		<edge from-layer="2621" from-port="2" to-layer="2622" to-port="1" />
		<edge from-layer="2622" from-port="2" to-layer="2624" to-port="0" />
		<edge from-layer="2623" from-port="0" to-layer="2624" to-port="1" />
		<edge from-layer="2624" from-port="2" to-layer="2629" to-port="0" />
		<edge from-layer="2625" from-port="0" to-layer="2629" to-port="1" />
		<edge from-layer="2626" from-port="0" to-layer="2629" to-port="2" />
		<edge from-layer="2627" from-port="0" to-layer="2629" to-port="3" />
		<edge from-layer="2628" from-port="0" to-layer="2629" to-port="4" />
		<edge from-layer="2629" from-port="5" to-layer="2630" to-port="0" />
		<edge from-layer="2630" from-port="2" to-layer="2632" to-port="0" />
		<edge from-layer="2631" from-port="0" to-layer="2632" to-port="1" />
		<edge from-layer="2632" from-port="2" to-layer="2633" to-port="1" />
		<edge from-layer="2633" from-port="2" to-layer="2638" to-port="0" />
		<edge from-layer="2634" from-port="0" to-layer="2638" to-port="1" />
		<edge from-layer="2635" from-port="0" to-layer="2638" to-port="2" />
		<edge from-layer="2636" from-port="0" to-layer="2638" to-port="3" />
		<edge from-layer="2637" from-port="0" to-layer="2638" to-port="4" />
		<edge from-layer="2638" from-port="5" to-layer="2640" to-port="0" />
		<edge from-layer="2639" from-port="0" to-layer="2640" to-port="1" />
		<edge from-layer="2640" from-port="2" to-layer="2642" to-port="0" />
		<edge from-layer="2641" from-port="0" to-layer="2642" to-port="1" />
		<edge from-layer="2642" from-port="2" to-layer="2644" to-port="0" />
		<edge from-layer="2643" from-port="0" to-layer="2644" to-port="1" />
		<edge from-layer="2644" from-port="2" to-layer="2649" to-port="0" />
		<edge from-layer="2645" from-port="0" to-layer="2649" to-port="1" />
		<edge from-layer="2646" from-port="0" to-layer="2649" to-port="2" />
		<edge from-layer="2647" from-port="0" to-layer="2649" to-port="3" />
		<edge from-layer="2648" from-port="0" to-layer="2649" to-port="4" />
		<edge from-layer="2649" from-port="5" to-layer="2767" to-port="1" />
		<edge from-layer="2649" from-port="5" to-layer="2658" to-port="0" />
		<edge from-layer="2649" from-port="5" to-layer="2753" to-port="0" />
		<edge from-layer="2650" from-port="2" to-layer="2683" to-port="0" />
		<edge from-layer="2650" from-port="2" to-layer="2651" to-port="0" />
		<edge from-layer="2651" from-port="5" to-layer="2656" to-port="0" />
		<edge from-layer="2652" from-port="0" to-layer="2656" to-port="1" />
		<edge from-layer="2653" from-port="0" to-layer="2656" to-port="2" />
		<edge from-layer="2654" from-port="0" to-layer="2656" to-port="3" />
		<edge from-layer="2655" from-port="0" to-layer="2656" to-port="4" />
		<edge from-layer="2656" from-port="5" to-layer="2697" to-port="0" />
		<edge from-layer="2657" from-port="0" to-layer="2669" to-port="0" />
		<edge from-layer="2658" from-port="2" to-layer="2663" to-port="0" />
		<edge from-layer="2659" from-port="0" to-layer="2663" to-port="1" />
		<edge from-layer="2660" from-port="0" to-layer="2663" to-port="2" />
		<edge from-layer="2661" from-port="0" to-layer="2663" to-port="3" />
		<edge from-layer="2662" from-port="0" to-layer="2663" to-port="4" />
		<edge from-layer="2663" from-port="5" to-layer="2668" to-port="0" />
		<edge from-layer="2663" from-port="5" to-layer="2725" to-port="0" />
		<edge from-layer="2664" from-port="0" to-layer="2665" to-port="0" />
		<edge from-layer="2665" from-port="1" to-layer="2667" to-port="0" />
		<edge from-layer="2666" from-port="0" to-layer="2667" to-port="1" />
		<edge from-layer="2667" from-port="2" to-layer="2668" to-port="1" />
		<edge from-layer="2668" from-port="2" to-layer="2669" to-port="1" />
		<edge from-layer="2669" from-port="2" to-layer="2674" to-port="0" />
		<edge from-layer="2670" from-port="0" to-layer="2674" to-port="1" />
		<edge from-layer="2671" from-port="0" to-layer="2674" to-port="2" />
		<edge from-layer="2672" from-port="0" to-layer="2674" to-port="3" />
		<edge from-layer="2673" from-port="0" to-layer="2674" to-port="4" />
		<edge from-layer="2674" from-port="5" to-layer="2675" to-port="0" />
		<edge from-layer="2675" from-port="2" to-layer="2677" to-port="0" />
		<edge from-layer="2676" from-port="0" to-layer="2677" to-port="1" />
		<edge from-layer="2677" from-port="2" to-layer="2682" to-port="0" />
		<edge from-layer="2678" from-port="0" to-layer="2682" to-port="1" />
		<edge from-layer="2679" from-port="0" to-layer="2682" to-port="2" />
		<edge from-layer="2680" from-port="0" to-layer="2682" to-port="3" />
		<edge from-layer="2681" from-port="0" to-layer="2682" to-port="4" />
		<edge from-layer="2682" from-port="5" to-layer="2689" to-port="0" />
		<edge from-layer="2683" from-port="5" to-layer="2688" to-port="0" />
		<edge from-layer="2684" from-port="0" to-layer="2688" to-port="1" />
		<edge from-layer="2685" from-port="0" to-layer="2688" to-port="2" />
		<edge from-layer="2686" from-port="0" to-layer="2688" to-port="3" />
		<edge from-layer="2687" from-port="0" to-layer="2688" to-port="4" />
		<edge from-layer="2688" from-port="5" to-layer="2689" to-port="1" />
		<edge from-layer="2689" from-port="2" to-layer="2691" to-port="0" />
		<edge from-layer="2690" from-port="0" to-layer="2691" to-port="1" />
		<edge from-layer="2691" from-port="2" to-layer="2696" to-port="0" />
		<edge from-layer="2692" from-port="0" to-layer="2696" to-port="1" />
		<edge from-layer="2693" from-port="0" to-layer="2696" to-port="2" />
		<edge from-layer="2694" from-port="0" to-layer="2696" to-port="3" />
		<edge from-layer="2695" from-port="0" to-layer="2696" to-port="4" />
		<edge from-layer="2696" from-port="5" to-layer="2697" to-port="1" />
		<edge from-layer="2697" from-port="2" to-layer="2699" to-port="0" />
		<edge from-layer="2698" from-port="0" to-layer="2699" to-port="1" />
		<edge from-layer="2699" from-port="2" to-layer="2701" to-port="0" />
		<edge from-layer="2700" from-port="0" to-layer="2701" to-port="1" />
		<edge from-layer="2701" from-port="2" to-layer="2703" to-port="0" />
		<edge from-layer="2702" from-port="0" to-layer="2703" to-port="1" />
		<edge from-layer="2703" from-port="2" to-layer="2704" to-port="0" />
		<edge from-layer="2704" from-port="2" to-layer="2706" to-port="0" />
		<edge from-layer="2705" from-port="0" to-layer="2706" to-port="1" />
		<edge from-layer="2706" from-port="3" to-layer="2707" to-port="1" />
		<edge from-layer="2706" from-port="4" to-layer="2713" to-port="1" />
		<edge from-layer="2707" from-port="2" to-layer="2712" to-port="0" />
		<edge from-layer="2708" from-port="0" to-layer="2712" to-port="1" />
		<edge from-layer="2709" from-port="0" to-layer="2712" to-port="2" />
		<edge from-layer="2710" from-port="0" to-layer="2712" to-port="3" />
		<edge from-layer="2711" from-port="0" to-layer="2712" to-port="4" />
		<edge from-layer="2712" from-port="5" to-layer="2719" to-port="0" />
		<edge from-layer="2713" from-port="2" to-layer="2718" to-port="0" />
		<edge from-layer="2714" from-port="0" to-layer="2718" to-port="1" />
		<edge from-layer="2715" from-port="0" to-layer="2718" to-port="2" />
		<edge from-layer="2716" from-port="0" to-layer="2718" to-port="3" />
		<edge from-layer="2717" from-port="0" to-layer="2718" to-port="4" />
		<edge from-layer="2718" from-port="5" to-layer="2719" to-port="1" />
		<edge from-layer="2719" from-port="2" to-layer="2737" to-port="0" />
		<edge from-layer="2720" from-port="0" to-layer="2726" to-port="0" />
		<edge from-layer="2721" from-port="0" to-layer="2722" to-port="0" />
		<edge from-layer="2722" from-port="1" to-layer="2724" to-port="0" />
		<edge from-layer="2723" from-port="0" to-layer="2724" to-port="1" />
		<edge from-layer="2724" from-port="2" to-layer="2725" to-port="1" />
		<edge from-layer="2725" from-port="2" to-layer="2726" to-port="1" />
		<edge from-layer="2726" from-port="2" to-layer="2727" to-port="0" />
		<edge from-layer="2727" from-port="2" to-layer="2728" to-port="0" />
		<edge from-layer="2728" from-port="1" to-layer="2733" to-port="0" />
		<edge from-layer="2729" from-port="0" to-layer="2733" to-port="1" />
		<edge from-layer="2730" from-port="0" to-layer="2733" to-port="2" />
		<edge from-layer="2731" from-port="0" to-layer="2733" to-port="3" />
		<edge from-layer="2732" from-port="0" to-layer="2733" to-port="4" />
		<edge from-layer="2733" from-port="5" to-layer="2735" to-port="0" />
		<edge from-layer="2734" from-port="0" to-layer="2735" to-port="1" />
		<edge from-layer="2735" from-port="2" to-layer="2736" to-port="0" />
		<edge from-layer="2736" from-port="2" to-layer="2737" to-port="1" />
		<edge from-layer="2737" from-port="2" to-layer="2742" to-port="0" />
		<edge from-layer="2738" from-port="0" to-layer="2742" to-port="1" />
		<edge from-layer="2739" from-port="0" to-layer="2742" to-port="2" />
		<edge from-layer="2740" from-port="0" to-layer="2742" to-port="3" />
		<edge from-layer="2741" from-port="0" to-layer="2742" to-port="4" />
		<edge from-layer="2742" from-port="5" to-layer="2743" to-port="0" />
		<edge from-layer="2743" from-port="2" to-layer="2748" to-port="0" />
		<edge from-layer="2744" from-port="0" to-layer="2748" to-port="1" />
		<edge from-layer="2745" from-port="0" to-layer="2748" to-port="2" />
		<edge from-layer="2746" from-port="0" to-layer="2748" to-port="3" />
		<edge from-layer="2747" from-port="0" to-layer="2748" to-port="4" />
		<edge from-layer="2748" from-port="5" to-layer="2750" to-port="0" />
		<edge from-layer="2749" from-port="0" to-layer="2750" to-port="1" />
		<edge from-layer="2750" from-port="2" to-layer="2752" to-port="0" />
		<edge from-layer="2751" from-port="0" to-layer="2752" to-port="1" />
		<edge from-layer="2752" from-port="2" to-layer="2779" to-port="1" />
		<edge from-layer="2752" from-port="2" to-layer="2753" to-port="1" />
		<edge from-layer="2753" from-port="2" to-layer="2758" to-port="0" />
		<edge from-layer="2754" from-port="0" to-layer="2755" to-port="0" />
		<edge from-layer="2755" from-port="1" to-layer="2757" to-port="0" />
		<edge from-layer="2756" from-port="0" to-layer="2757" to-port="1" />
		<edge from-layer="2757" from-port="2" to-layer="2758" to-port="1" />
		<edge from-layer="2758" from-port="2" to-layer="2759" to-port="1" />
		<edge from-layer="2759" from-port="2" to-layer="2760" to-port="0" />
		<edge from-layer="2760" from-port="1" to-layer="2773" to-port="0" />
		<edge from-layer="2760" from-port="1" to-layer="2761" to-port="0" />
		<edge from-layer="2761" from-port="5" to-layer="2766" to-port="0" />
		<edge from-layer="2762" from-port="0" to-layer="2766" to-port="1" />
		<edge from-layer="2763" from-port="0" to-layer="2766" to-port="2" />
		<edge from-layer="2764" from-port="0" to-layer="2766" to-port="3" />
		<edge from-layer="2765" from-port="0" to-layer="2766" to-port="4" />
		<edge from-layer="2766" from-port="5" to-layer="2767" to-port="0" />
		<edge from-layer="2767" from-port="2" to-layer="2772" to-port="0" />
		<edge from-layer="2768" from-port="0" to-layer="2772" to-port="1" />
		<edge from-layer="2769" from-port="0" to-layer="2772" to-port="2" />
		<edge from-layer="2770" from-port="0" to-layer="2772" to-port="3" />
		<edge from-layer="2771" from-port="0" to-layer="2772" to-port="4" />
		<edge from-layer="2772" from-port="5" to-layer="2785" to-port="0" />
		<edge from-layer="2773" from-port="5" to-layer="2778" to-port="0" />
		<edge from-layer="2774" from-port="0" to-layer="2778" to-port="1" />
		<edge from-layer="2775" from-port="0" to-layer="2778" to-port="2" />
		<edge from-layer="2776" from-port="0" to-layer="2778" to-port="3" />
		<edge from-layer="2777" from-port="0" to-layer="2778" to-port="4" />
		<edge from-layer="2778" from-port="5" to-layer="2779" to-port="0" />
		<edge from-layer="2779" from-port="2" to-layer="2784" to-port="0" />
		<edge from-layer="2780" from-port="0" to-layer="2784" to-port="1" />
		<edge from-layer="2781" from-port="0" to-layer="2784" to-port="2" />
		<edge from-layer="2782" from-port="0" to-layer="2784" to-port="3" />
		<edge from-layer="2783" from-port="0" to-layer="2784" to-port="4" />
		<edge from-layer="2784" from-port="5" to-layer="2785" to-port="1" />
		<edge from-layer="2785" from-port="2" to-layer="2790" to-port="0" />
		<edge from-layer="2786" from-port="0" to-layer="2790" to-port="1" />
		<edge from-layer="2787" from-port="0" to-layer="2790" to-port="2" />
		<edge from-layer="2788" from-port="0" to-layer="2790" to-port="3" />
		<edge from-layer="2789" from-port="0" to-layer="2790" to-port="4" />
		<edge from-layer="2790" from-port="5" to-layer="2792" to-port="0" />
		<edge from-layer="2791" from-port="0" to-layer="2792" to-port="1" />
		<edge from-layer="2792" from-port="2" to-layer="2794" to-port="0" />
		<edge from-layer="2793" from-port="0" to-layer="2794" to-port="1" />
		<edge from-layer="2794" from-port="2" to-layer="2796" to-port="0" />
		<edge from-layer="2795" from-port="0" to-layer="2796" to-port="1" />
		<edge from-layer="2796" from-port="2" to-layer="2801" to-port="0" />
		<edge from-layer="2797" from-port="0" to-layer="2801" to-port="1" />
		<edge from-layer="2798" from-port="0" to-layer="2801" to-port="2" />
		<edge from-layer="2799" from-port="0" to-layer="2801" to-port="3" />
		<edge from-layer="2800" from-port="0" to-layer="2801" to-port="4" />
		<edge from-layer="2801" from-port="5" to-layer="2827" to-port="0" />
		<edge from-layer="2801" from-port="5" to-layer="2808" to-port="0" />
		<edge from-layer="2802" from-port="0" to-layer="2821" to-port="0" />
		<edge from-layer="2803" from-port="0" to-layer="2809" to-port="0" />
		<edge from-layer="2804" from-port="0" to-layer="2805" to-port="0" />
		<edge from-layer="2805" from-port="1" to-layer="2807" to-port="0" />
		<edge from-layer="2806" from-port="0" to-layer="2807" to-port="1" />
		<edge from-layer="2807" from-port="2" to-layer="2808" to-port="1" />
		<edge from-layer="2808" from-port="2" to-layer="2809" to-port="1" />
		<edge from-layer="2809" from-port="2" to-layer="2810" to-port="0" />
		<edge from-layer="2810" from-port="1" to-layer="2815" to-port="0" />
		<edge from-layer="2811" from-port="0" to-layer="2815" to-port="1" />
		<edge from-layer="2812" from-port="0" to-layer="2815" to-port="2" />
		<edge from-layer="2813" from-port="0" to-layer="2815" to-port="3" />
		<edge from-layer="2814" from-port="0" to-layer="2815" to-port="4" />
		<edge from-layer="2815" from-port="5" to-layer="2820" to-port="0" />
		<edge from-layer="2816" from-port="0" to-layer="2817" to-port="0" />
		<edge from-layer="2817" from-port="1" to-layer="2819" to-port="0" />
		<edge from-layer="2818" from-port="0" to-layer="2819" to-port="1" />
		<edge from-layer="2819" from-port="2" to-layer="2820" to-port="1" />
		<edge from-layer="2820" from-port="2" to-layer="2821" to-port="1" />
		<edge from-layer="2821" from-port="2" to-layer="2826" to-port="0" />
		<edge from-layer="2822" from-port="0" to-layer="2826" to-port="1" />
		<edge from-layer="2823" from-port="0" to-layer="2826" to-port="2" />
		<edge from-layer="2824" from-port="0" to-layer="2826" to-port="3" />
		<edge from-layer="2825" from-port="0" to-layer="2826" to-port="4" />
		<edge from-layer="2826" from-port="5" to-layer="2827" to-port="1" />
		<edge from-layer="2827" from-port="2" to-layer="2828" to-port="0" />
		<edge from-layer="2828" from-port="1" to-layer="2833" to-port="0" />
		<edge from-layer="2829" from-port="0" to-layer="2833" to-port="1" />
		<edge from-layer="2830" from-port="0" to-layer="2833" to-port="2" />
		<edge from-layer="2831" from-port="0" to-layer="2833" to-port="3" />
		<edge from-layer="2832" from-port="0" to-layer="2833" to-port="4" />
		<edge from-layer="2833" from-port="5" to-layer="2835" to-port="0" />
		<edge from-layer="2834" from-port="0" to-layer="2835" to-port="1" />
		<edge from-layer="2835" from-port="2" to-layer="2837" to-port="0" />
		<edge from-layer="2836" from-port="0" to-layer="2837" to-port="1" />
		<edge from-layer="2837" from-port="2" to-layer="2839" to-port="0" />
		<edge from-layer="2838" from-port="0" to-layer="2839" to-port="1" />
		<edge from-layer="2839" from-port="2" to-layer="2844" to-port="0" />
		<edge from-layer="2840" from-port="0" to-layer="2844" to-port="1" />
		<edge from-layer="2841" from-port="0" to-layer="2844" to-port="2" />
		<edge from-layer="2842" from-port="0" to-layer="2844" to-port="3" />
		<edge from-layer="2843" from-port="0" to-layer="2844" to-port="4" />
		<edge from-layer="2844" from-port="5" to-layer="2856" to-port="0" />
		<edge from-layer="2844" from-port="5" to-layer="2849" to-port="0" />
		<edge from-layer="2845" from-port="0" to-layer="2846" to-port="0" />
		<edge from-layer="2846" from-port="1" to-layer="2848" to-port="0" />
		<edge from-layer="2847" from-port="0" to-layer="2848" to-port="1" />
		<edge from-layer="2848" from-port="2" to-layer="2849" to-port="1" />
		<edge from-layer="2849" from-port="2" to-layer="2850" to-port="1" />
		<edge from-layer="2850" from-port="2" to-layer="2941" to-port="0" />
		<edge from-layer="2851" from-port="0" to-layer="2940" to-port="0" />
		<edge from-layer="2852" from-port="0" to-layer="2928" to-port="0" />
		<edge from-layer="2853" from-port="0" to-layer="2891" to-port="0" />
		<edge from-layer="2854" from-port="0" to-layer="2879" to-port="0" />
		<edge from-layer="2855" from-port="0" to-layer="2867" to-port="0" />
		<edge from-layer="2856" from-port="2" to-layer="2861" to-port="0" />
		<edge from-layer="2857" from-port="0" to-layer="2861" to-port="1" />
		<edge from-layer="2858" from-port="0" to-layer="2861" to-port="2" />
		<edge from-layer="2859" from-port="0" to-layer="2861" to-port="3" />
		<edge from-layer="2860" from-port="0" to-layer="2861" to-port="4" />
		<edge from-layer="2861" from-port="5" to-layer="2866" to-port="0" />
		<edge from-layer="2862" from-port="0" to-layer="2863" to-port="0" />
		<edge from-layer="2863" from-port="1" to-layer="2865" to-port="0" />
		<edge from-layer="2864" from-port="0" to-layer="2865" to-port="1" />
		<edge from-layer="2865" from-port="2" to-layer="2866" to-port="1" />
		<edge from-layer="2866" from-port="2" to-layer="2867" to-port="1" />
		<edge from-layer="2867" from-port="2" to-layer="2868" to-port="0" />
		<edge from-layer="2868" from-port="1" to-layer="2873" to-port="0" />
		<edge from-layer="2869" from-port="0" to-layer="2873" to-port="1" />
		<edge from-layer="2870" from-port="0" to-layer="2873" to-port="2" />
		<edge from-layer="2871" from-port="0" to-layer="2873" to-port="3" />
		<edge from-layer="2872" from-port="0" to-layer="2873" to-port="4" />
		<edge from-layer="2873" from-port="5" to-layer="2878" to-port="0" />
		<edge from-layer="2874" from-port="0" to-layer="2875" to-port="0" />
		<edge from-layer="2875" from-port="1" to-layer="2877" to-port="0" />
		<edge from-layer="2876" from-port="0" to-layer="2877" to-port="1" />
		<edge from-layer="2877" from-port="2" to-layer="2878" to-port="1" />
		<edge from-layer="2878" from-port="2" to-layer="2879" to-port="1" />
		<edge from-layer="2879" from-port="2" to-layer="2880" to-port="0" />
		<edge from-layer="2880" from-port="1" to-layer="2885" to-port="0" />
		<edge from-layer="2881" from-port="0" to-layer="2885" to-port="1" />
		<edge from-layer="2882" from-port="0" to-layer="2885" to-port="2" />
		<edge from-layer="2883" from-port="0" to-layer="2885" to-port="3" />
		<edge from-layer="2884" from-port="0" to-layer="2885" to-port="4" />
		<edge from-layer="2885" from-port="5" to-layer="2890" to-port="0" />
		<edge from-layer="2886" from-port="0" to-layer="2887" to-port="0" />
		<edge from-layer="2887" from-port="1" to-layer="2889" to-port="0" />
		<edge from-layer="2888" from-port="0" to-layer="2889" to-port="1" />
		<edge from-layer="2889" from-port="2" to-layer="2890" to-port="1" />
		<edge from-layer="2890" from-port="2" to-layer="2891" to-port="1" />
		<edge from-layer="2891" from-port="2" to-layer="2896" to-port="0" />
		<edge from-layer="2892" from-port="0" to-layer="2896" to-port="1" />
		<edge from-layer="2893" from-port="0" to-layer="2896" to-port="2" />
		<edge from-layer="2894" from-port="0" to-layer="2896" to-port="3" />
		<edge from-layer="2895" from-port="0" to-layer="2896" to-port="4" />
		<edge from-layer="2896" from-port="5" to-layer="2902" to-port="0" />
		<edge from-layer="2897" from-port="0" to-layer="2901" to-port="1" />
		<edge from-layer="2898" from-port="0" to-layer="2901" to-port="2" />
		<edge from-layer="2899" from-port="0" to-layer="2901" to-port="3" />
		<edge from-layer="2900" from-port="0" to-layer="2901" to-port="4" />
		<edge from-layer="2901" from-port="5" to-layer="2902" to-port="1" />
		<edge from-layer="2902" from-port="2" to-layer="2904" to-port="0" />
		<edge from-layer="2902" from-port="2" to-layer="2949" to-port="0" />
		<edge from-layer="2903" from-port="0" to-layer="2904" to-port="1" />
		<edge from-layer="2904" from-port="2" to-layer="2905" to-port="0" />
		<edge from-layer="2905" from-port="1" to-layer="2907" to-port="0" />
		<edge from-layer="2906" from-port="0" to-layer="2907" to-port="1" />
		<edge from-layer="2907" from-port="2" to-layer="2912" to-port="0" />
		<edge from-layer="2908" from-port="0" to-layer="2912" to-port="1" />
		<edge from-layer="2909" from-port="0" to-layer="2912" to-port="2" />
		<edge from-layer="2910" from-port="0" to-layer="2912" to-port="3" />
		<edge from-layer="2911" from-port="0" to-layer="2912" to-port="4" />
		<edge from-layer="2912" from-port="5" to-layer="2914" to-port="0" />
		<edge from-layer="2912" from-port="5" to-layer="2920" to-port="0" />
		<edge from-layer="2913" from-port="0" to-layer="2914" to-port="1" />
		<edge from-layer="2914" from-port="2" to-layer="2919" to-port="0" />
		<edge from-layer="2915" from-port="0" to-layer="2919" to-port="1" />
		<edge from-layer="2916" from-port="0" to-layer="2919" to-port="2" />
		<edge from-layer="2917" from-port="0" to-layer="2919" to-port="3" />
		<edge from-layer="2918" from-port="0" to-layer="2919" to-port="4" />
		<edge from-layer="2919" from-port="5" to-layer="2920" to-port="1" />
		<edge from-layer="2920" from-port="2" to-layer="2922" to-port="0" />
		<edge from-layer="2921" from-port="0" to-layer="2922" to-port="1" />
		<edge from-layer="2922" from-port="2" to-layer="2927" to-port="0" />
		<edge from-layer="2923" from-port="0" to-layer="2924" to-port="0" />
		<edge from-layer="2924" from-port="1" to-layer="2926" to-port="0" />
		<edge from-layer="2925" from-port="0" to-layer="2926" to-port="1" />
		<edge from-layer="2926" from-port="2" to-layer="2927" to-port="1" />
		<edge from-layer="2927" from-port="2" to-layer="2928" to-port="1" />
		<edge from-layer="2928" from-port="2" to-layer="2929" to-port="0" />
		<edge from-layer="2929" from-port="1" to-layer="2934" to-port="0" />
		<edge from-layer="2930" from-port="0" to-layer="2934" to-port="1" />
		<edge from-layer="2931" from-port="0" to-layer="2934" to-port="2" />
		<edge from-layer="2932" from-port="0" to-layer="2934" to-port="3" />
		<edge from-layer="2933" from-port="0" to-layer="2934" to-port="4" />
		<edge from-layer="2934" from-port="5" to-layer="2939" to-port="0" />
		<edge from-layer="2935" from-port="0" to-layer="2936" to-port="0" />
		<edge from-layer="2936" from-port="1" to-layer="2938" to-port="0" />
		<edge from-layer="2937" from-port="0" to-layer="2938" to-port="1" />
		<edge from-layer="2938" from-port="2" to-layer="2939" to-port="1" />
		<edge from-layer="2939" from-port="2" to-layer="2940" to-port="1" />
		<edge from-layer="2940" from-port="2" to-layer="2941" to-port="1" />
		<edge from-layer="2941" from-port="2" to-layer="2942" to-port="0" />
		<edge from-layer="2942" from-port="1" to-layer="2944" to-port="0" />
		<edge from-layer="2943" from-port="0" to-layer="2944" to-port="1" />
		<edge from-layer="2944" from-port="2" to-layer="2946" to-port="0" />
		<edge from-layer="2945" from-port="0" to-layer="2946" to-port="1" />
		<edge from-layer="2946" from-port="2" to-layer="2947" to-port="0" />
		<edge from-layer="2946" from-port="3" to-layer="3120" to-port="0" />
		<edge from-layer="2946" from-port="3" to-layer="3128" to-port="0" />
		<edge from-layer="2948" from-port="0" to-layer="2965" to-port="0" />
		<edge from-layer="2949" from-port="2" to-layer="2950" to-port="0" />
		<edge from-layer="2950" from-port="1" to-layer="2955" to-port="0" />
		<edge from-layer="2951" from-port="0" to-layer="2955" to-port="1" />
		<edge from-layer="2952" from-port="0" to-layer="2955" to-port="2" />
		<edge from-layer="2953" from-port="0" to-layer="2955" to-port="3" />
		<edge from-layer="2954" from-port="0" to-layer="2955" to-port="4" />
		<edge from-layer="2955" from-port="5" to-layer="2956" to-port="0" />
		<edge from-layer="2956" from-port="2" to-layer="2961" to-port="0" />
		<edge from-layer="2957" from-port="0" to-layer="2961" to-port="1" />
		<edge from-layer="2958" from-port="0" to-layer="2961" to-port="2" />
		<edge from-layer="2959" from-port="0" to-layer="2961" to-port="3" />
		<edge from-layer="2960" from-port="0" to-layer="2961" to-port="4" />
		<edge from-layer="2961" from-port="5" to-layer="2962" to-port="0" />
		<edge from-layer="2962" from-port="2" to-layer="2986" to-port="0" />
		<edge from-layer="2962" from-port="2" to-layer="3025" to-port="0" />
		<edge from-layer="2962" from-port="2" to-layer="2964" to-port="0" />
		<edge from-layer="2962" from-port="2" to-layer="3008" to-port="0" />
		<edge from-layer="2963" from-port="0" to-layer="2964" to-port="2" />
		<edge from-layer="2964" from-port="3" to-layer="2965" to-port="1" />
		<edge from-layer="2965" from-port="2" to-layer="2970" to-port="0" />
		<edge from-layer="2966" from-port="0" to-layer="2970" to-port="1" />
		<edge from-layer="2967" from-port="0" to-layer="2970" to-port="2" />
		<edge from-layer="2968" from-port="0" to-layer="2970" to-port="3" />
		<edge from-layer="2969" from-port="0" to-layer="2970" to-port="4" />
		<edge from-layer="2970" from-port="5" to-layer="2971" to-port="0" />
		<edge from-layer="2971" from-port="2" to-layer="2976" to-port="0" />
		<edge from-layer="2972" from-port="0" to-layer="2976" to-port="1" />
		<edge from-layer="2973" from-port="0" to-layer="2976" to-port="2" />
		<edge from-layer="2974" from-port="0" to-layer="2976" to-port="3" />
		<edge from-layer="2975" from-port="0" to-layer="2976" to-port="4" />
		<edge from-layer="2976" from-port="5" to-layer="2977" to-port="1" />
		<edge from-layer="2977" from-port="2" to-layer="2978" to-port="0" />
		<edge from-layer="2978" from-port="2" to-layer="3030" to-port="0" />
		<edge from-layer="2979" from-port="0" to-layer="2983" to-port="1" />
		<edge from-layer="2980" from-port="0" to-layer="2983" to-port="2" />
		<edge from-layer="2981" from-port="0" to-layer="2983" to-port="3" />
		<edge from-layer="2982" from-port="0" to-layer="2983" to-port="4" />
		<edge from-layer="2983" from-port="5" to-layer="3004" to-port="0" />
		<edge from-layer="2984" from-port="0" to-layer="2987" to-port="0" />
		<edge from-layer="2985" from-port="0" to-layer="2986" to-port="2" />
		<edge from-layer="2986" from-port="3" to-layer="2987" to-port="1" />
		<edge from-layer="2987" from-port="2" to-layer="2992" to-port="0" />
		<edge from-layer="2988" from-port="0" to-layer="2992" to-port="1" />
		<edge from-layer="2989" from-port="0" to-layer="2992" to-port="2" />
		<edge from-layer="2990" from-port="0" to-layer="2992" to-port="3" />
		<edge from-layer="2991" from-port="0" to-layer="2992" to-port="4" />
		<edge from-layer="2992" from-port="5" to-layer="2998" to-port="0" />
		<edge from-layer="2993" from-port="0" to-layer="2997" to-port="1" />
		<edge from-layer="2994" from-port="0" to-layer="2997" to-port="2" />
		<edge from-layer="2995" from-port="0" to-layer="2997" to-port="3" />
		<edge from-layer="2996" from-port="0" to-layer="2997" to-port="4" />
		<edge from-layer="2997" from-port="5" to-layer="2998" to-port="1" />
		<edge from-layer="2998" from-port="2" to-layer="3003" to-port="0" />
		<edge from-layer="2999" from-port="0" to-layer="3003" to-port="1" />
		<edge from-layer="3000" from-port="0" to-layer="3003" to-port="2" />
		<edge from-layer="3001" from-port="0" to-layer="3003" to-port="3" />
		<edge from-layer="3002" from-port="0" to-layer="3003" to-port="4" />
		<edge from-layer="3003" from-port="5" to-layer="3004" to-port="1" />
		<edge from-layer="3004" from-port="2" to-layer="3005" to-port="0" />
		<edge from-layer="3005" from-port="2" to-layer="3030" to-port="1" />
		<edge from-layer="3006" from-port="0" to-layer="3009" to-port="0" />
		<edge from-layer="3007" from-port="0" to-layer="3008" to-port="2" />
		<edge from-layer="3008" from-port="3" to-layer="3009" to-port="1" />
		<edge from-layer="3009" from-port="2" to-layer="3014" to-port="0" />
		<edge from-layer="3010" from-port="0" to-layer="3014" to-port="1" />
		<edge from-layer="3011" from-port="0" to-layer="3014" to-port="2" />
		<edge from-layer="3012" from-port="0" to-layer="3014" to-port="3" />
		<edge from-layer="3013" from-port="0" to-layer="3014" to-port="4" />
		<edge from-layer="3014" from-port="5" to-layer="3015" to-port="0" />
		<edge from-layer="3015" from-port="2" to-layer="3020" to-port="0" />
		<edge from-layer="3016" from-port="0" to-layer="3020" to-port="1" />
		<edge from-layer="3017" from-port="0" to-layer="3020" to-port="2" />
		<edge from-layer="3018" from-port="0" to-layer="3020" to-port="3" />
		<edge from-layer="3019" from-port="0" to-layer="3020" to-port="4" />
		<edge from-layer="3020" from-port="5" to-layer="3021" to-port="1" />
		<edge from-layer="3021" from-port="2" to-layer="3022" to-port="0" />
		<edge from-layer="3022" from-port="2" to-layer="3030" to-port="2" />
		<edge from-layer="3023" from-port="0" to-layer="3026" to-port="0" />
		<edge from-layer="3024" from-port="0" to-layer="3025" to-port="2" />
		<edge from-layer="3025" from-port="3" to-layer="3026" to-port="1" />
		<edge from-layer="3026" from-port="2" to-layer="3027" to-port="0" />
		<edge from-layer="3027" from-port="2" to-layer="3028" to-port="1" />
		<edge from-layer="3028" from-port="2" to-layer="3029" to-port="0" />
		<edge from-layer="3029" from-port="2" to-layer="3030" to-port="3" />
		<edge from-layer="3030" from-port="4" to-layer="3032" to-port="0" />
		<edge from-layer="3031" from-port="0" to-layer="3032" to-port="1" />
		<edge from-layer="3032" from-port="3" to-layer="3037" to-port="0" />
		<edge from-layer="3032" from-port="5" to-layer="3043" to-port="0" />
		<edge from-layer="3032" from-port="4" to-layer="3049" to-port="0" />
		<edge from-layer="3032" from-port="6" to-layer="3055" to-port="0" />
		<edge from-layer="3033" from-port="0" to-layer="3037" to-port="1" />
		<edge from-layer="3034" from-port="0" to-layer="3037" to-port="2" />
		<edge from-layer="3035" from-port="0" to-layer="3037" to-port="3" />
		<edge from-layer="3036" from-port="0" to-layer="3037" to-port="4" />
		<edge from-layer="3037" from-port="5" to-layer="3038" to-port="0" />
		<edge from-layer="3038" from-port="2" to-layer="3045" to-port="0" />
		<edge from-layer="3038" from-port="2" to-layer="3065" to-port="1" />
		<edge from-layer="3039" from-port="0" to-layer="3043" to-port="1" />
		<edge from-layer="3040" from-port="0" to-layer="3043" to-port="2" />
		<edge from-layer="3041" from-port="0" to-layer="3043" to-port="3" />
		<edge from-layer="3042" from-port="0" to-layer="3043" to-port="4" />
		<edge from-layer="3043" from-port="5" to-layer="3044" to-port="0" />
		<edge from-layer="3044" from-port="2" to-layer="3065" to-port="0" />
		<edge from-layer="3044" from-port="2" to-layer="3045" to-port="1" />
		<edge from-layer="3045" from-port="2" to-layer="3047" to-port="0" />
		<edge from-layer="3046" from-port="0" to-layer="3047" to-port="1" />
		<edge from-layer="3047" from-port="2" to-layer="3048" to-port="0" />
		<edge from-layer="3048" from-port="2" to-layer="3069" to-port="0" />
		<edge from-layer="3049" from-port="2" to-layer="3054" to-port="0" />
		<edge from-layer="3049" from-port="2" to-layer="3067" to-port="1" />
		<edge from-layer="3050" from-port="0" to-layer="3054" to-port="1" />
		<edge from-layer="3051" from-port="0" to-layer="3054" to-port="2" />
		<edge from-layer="3052" from-port="0" to-layer="3054" to-port="3" />
		<edge from-layer="3053" from-port="0" to-layer="3054" to-port="4" />
		<edge from-layer="3054" from-port="5" to-layer="3061" to-port="0" />
		<edge from-layer="3055" from-port="2" to-layer="3067" to-port="0" />
		<edge from-layer="3055" from-port="2" to-layer="3060" to-port="0" />
		<edge from-layer="3056" from-port="0" to-layer="3060" to-port="1" />
		<edge from-layer="3057" from-port="0" to-layer="3060" to-port="2" />
		<edge from-layer="3058" from-port="0" to-layer="3060" to-port="3" />
		<edge from-layer="3059" from-port="0" to-layer="3060" to-port="4" />
		<edge from-layer="3060" from-port="5" to-layer="3061" to-port="1" />
		<edge from-layer="3061" from-port="2" to-layer="3063" to-port="0" />
		<edge from-layer="3062" from-port="0" to-layer="3063" to-port="1" />
		<edge from-layer="3063" from-port="2" to-layer="3064" to-port="0" />
		<edge from-layer="3064" from-port="2" to-layer="3069" to-port="1" />
		<edge from-layer="3065" from-port="2" to-layer="3066" to-port="0" />
		<edge from-layer="3066" from-port="2" to-layer="3069" to-port="2" />
		<edge from-layer="3067" from-port="2" to-layer="3068" to-port="0" />
		<edge from-layer="3068" from-port="2" to-layer="3069" to-port="3" />
		<edge from-layer="3069" from-port="4" to-layer="3071" to-port="0" />
		<edge from-layer="3070" from-port="0" to-layer="3071" to-port="1" />
		<edge from-layer="3071" from-port="6" to-layer="3099" to-port="0" />
		<edge from-layer="3071" from-port="5" to-layer="3082" to-port="0" />
		<edge from-layer="3071" from-port="4" to-layer="3093" to-port="0" />
		<edge from-layer="3071" from-port="3" to-layer="3076" to-port="0" />
		<edge from-layer="3072" from-port="0" to-layer="3076" to-port="1" />
		<edge from-layer="3073" from-port="0" to-layer="3076" to-port="2" />
		<edge from-layer="3074" from-port="0" to-layer="3076" to-port="3" />
		<edge from-layer="3075" from-port="0" to-layer="3076" to-port="4" />
		<edge from-layer="3076" from-port="5" to-layer="3077" to-port="0" />
		<edge from-layer="3077" from-port="2" to-layer="3091" to-port="0" />
		<edge from-layer="3077" from-port="2" to-layer="3109" to-port="0" />
		<edge from-layer="3078" from-port="0" to-layer="3082" to-port="1" />
		<edge from-layer="3079" from-port="0" to-layer="3082" to-port="2" />
		<edge from-layer="3080" from-port="0" to-layer="3082" to-port="3" />
		<edge from-layer="3081" from-port="0" to-layer="3082" to-port="4" />
		<edge from-layer="3082" from-port="5" to-layer="3083" to-port="0" />
		<edge from-layer="3083" from-port="2" to-layer="3085" to-port="0" />
		<edge from-layer="3084" from-port="0" to-layer="3085" to-port="1" />
		<edge from-layer="3085" from-port="2" to-layer="3090" to-port="0" />
		<edge from-layer="3086" from-port="0" to-layer="3090" to-port="1" />
		<edge from-layer="3087" from-port="0" to-layer="3090" to-port="2" />
		<edge from-layer="3088" from-port="0" to-layer="3090" to-port="3" />
		<edge from-layer="3089" from-port="0" to-layer="3090" to-port="4" />
		<edge from-layer="3090" from-port="5" to-layer="3109" to-port="1" />
		<edge from-layer="3090" from-port="5" to-layer="3091" to-port="1" />
		<edge from-layer="3091" from-port="2" to-layer="3092" to-port="0" />
		<edge from-layer="3092" from-port="2" to-layer="3113" to-port="0" />
		<edge from-layer="3093" from-port="2" to-layer="3098" to-port="0" />
		<edge from-layer="3093" from-port="2" to-layer="3111" to-port="0" />
		<edge from-layer="3094" from-port="0" to-layer="3098" to-port="1" />
		<edge from-layer="3095" from-port="0" to-layer="3098" to-port="2" />
		<edge from-layer="3096" from-port="0" to-layer="3098" to-port="3" />
		<edge from-layer="3097" from-port="0" to-layer="3098" to-port="4" />
		<edge from-layer="3098" from-port="5" to-layer="3107" to-port="0" />
		<edge from-layer="3099" from-port="2" to-layer="3101" to-port="0" />
		<edge from-layer="3100" from-port="0" to-layer="3101" to-port="1" />
		<edge from-layer="3101" from-port="2" to-layer="3106" to-port="0" />
		<edge from-layer="3101" from-port="2" to-layer="3111" to-port="1" />
		<edge from-layer="3102" from-port="0" to-layer="3106" to-port="1" />
		<edge from-layer="3103" from-port="0" to-layer="3106" to-port="2" />
		<edge from-layer="3104" from-port="0" to-layer="3106" to-port="3" />
		<edge from-layer="3105" from-port="0" to-layer="3106" to-port="4" />
		<edge from-layer="3106" from-port="5" to-layer="3107" to-port="1" />
		<edge from-layer="3107" from-port="2" to-layer="3108" to-port="0" />
		<edge from-layer="3108" from-port="2" to-layer="3113" to-port="1" />
		<edge from-layer="3109" from-port="2" to-layer="3110" to-port="0" />
		<edge from-layer="3110" from-port="2" to-layer="3113" to-port="2" />
		<edge from-layer="3111" from-port="2" to-layer="3112" to-port="0" />
		<edge from-layer="3112" from-port="2" to-layer="3113" to-port="3" />
		<edge from-layer="3113" from-port="4" to-layer="3118" to-port="0" />
		<edge from-layer="3114" from-port="0" to-layer="3115" to-port="1" />
		<edge from-layer="3115" from-port="2" to-layer="3116" to-port="0" />
		<edge from-layer="3116" from-port="2" to-layer="3117" to-port="0" />
		<edge from-layer="3117" from-port="1" to-layer="3118" to-port="1" />
		<edge from-layer="3118" from-port="2" to-layer="3124" to-port="0" />
		<edge from-layer="3119" from-port="0" to-layer="3120" to-port="1" />
		<edge from-layer="3120" from-port="2" to-layer="3121" to-port="0" />
		<edge from-layer="3120" from-port="2" to-layer="3127" to-port="0" />
		<edge from-layer="3121" from-port="2" to-layer="3123" to-port="0" />
		<edge from-layer="3122" from-port="0" to-layer="3123" to-port="1" />
		<edge from-layer="3123" from-port="2" to-layer="3124" to-port="1" />
		<edge from-layer="3124" from-port="2" to-layer="3125" to-port="0" />
		<edge from-layer="3126" from-port="0" to-layer="3127" to-port="1" />
		<edge from-layer="3127" from-port="2" to-layer="3128" to-port="1" />
		<edge from-layer="3128" from-port="2" to-layer="3129" to-port="0" />
	</edges>
	<rt_info>
		<Runtime_version value="2025.2.0-19140-c01cd93e24d-releases/2025/2" />
		<conversion_parameters>
			<input_model value="DIR/dfine_n_coco.onnx" />
			<is_python_object value="False" />
		</conversion_parameters>
		<nncf>
			<friendly_names_were_updated value="True" />
			<quantization>
				<advanced_parameters value="{}" />
				<fast_bias_correction value="True" />
				<ignored_scope value="None" />
				<model_type value="None" />
				<preset value="mixed" />
				<subset_size value="300" />
				<target_device value="ANY" />
			</quantization>
			<version value="2.17.0" />
		</nncf>
	</rt_info>
</net>
